submissions/aguerouani/predator_model.pth (torch, 25321 bytes, 6 tensors)

policy_net.0.weight f4 [64, 16]
000000 ea 29 d3 bd 7e 4a 9a bd a2 b1 30 3e 47 f3 ef bb
       -0.10310729 -0.075337395 0.17255262 -0.007322702
000010 07 f6 74 bd ae d1 5c 3e 23 ce 47 3e bd c1 35 3e
       -0.059804942 0.21564361 0.19512229 0.17749687
000020 c9 60 86 3e b2 a8 94 bd dc 93 96 3e d8 88 15 be
       0.26245716 -0.072587386 0.29409683 -0.14602983
000030 0b 24 fc be 43 33 d6 bc 2d 5e d4 bd f8 4c f3 be
       -0.4924625 -0.02614749 -0.10369525 -0.4751966
000040 4f e9 49 be 5a 2b e1 3d d8 ff 83 bd f2 f2 2f 3d
       -0.19717906 0.10994597 -0.06445283 0.0429563
000050 8e 87 9d be a8 77 61 3e 0f bf 0a bc 1d 86 39 3e
       -0.30767483 0.22018301 -0.0084684035 0.18117566
000060 c1 3d f1 3d 37 73 14 be 23 7b fb bd a6 4e fe 3d
       0.11779357 -0.14497076 -0.12279346 0.12417345
000070 12 da 36 be 79 40 b4 be 1b 89 97 be 4e 60 cc bd
       -0.17856625 -0.3520544 -0.2959679 -0.09979306
000080 f4 99 dc 3d 49 5a 5c bd ee 3f a8 3c 01 6c 83 be
       0.10771552 -0.05379704 0.020538297 -0.25668338
000090 23 f9 d1 bd 6f 1a dc 3d a9 61 27 bf 2e d1 a7 be
       -0.10252597 0.10747229 -0.6538339 -0.3277678
0000a0 35 ba 0f be 11 65 38 bd 4d 2d 90 3d f9 53 b4 3d
       -0.14035876 -0.04501826 0.070398904 0.08805079
0000b0 0c 7f 63 be 1e e2 a0 3d f8 0f 1c 3f f2 a3 3e 3e
       -0.22216433 0.078556284 0.60961866 0.18617228
0000c0 48 43 7c be 9a 81 96 bd c2 ff a1 bd 6f 2b 66 3e
       -0.24635041 -0.07348938 -0.0791011 0.22477506
0000d0 72 29 79 be 1d aa c3 bd f9 2a c0 bd 49 3a 71 3d
       -0.24332216 -0.09553931 -0.093831964 0.058893476
0000e0 5b f6 5c ba dc 06 de 3c af 07 c5 3d 1b 8c 0c be
       -0.0008429044 0.02710288 0.09620606 -0.13725321
0000f0 71 38 ce 3e 1d fb 89 be 7c 83 5b be 28 30 ff be
       0.40277436 -0.26949397 -0.21436876 -0.49841428
000100 3e 1e 72 be 7e e4 2e be ea 80 3e be 09 b5 b2 be
       -0.23644349 -0.1707935 -0.18603864 -0.34903744
000110 8a 8b 98 3d 33 ea c4 3d fc 6c bf bd ed 45 22 3e
       0.0744849 0.096149825 -0.09346959 0.15846987
000120 e2 4c 42 be 6a a0 b9 bd 9f 11 37 be 10 15 05 3e
       -0.18974641 -0.090638 -0.17877816 0.12996316
000130 c0 7d 41 be 49 f5 6a bd 9d 2b 42 3d f3 f8 61 3d
       -0.18895626 -0.05736283 0.047404874 0.055169057
000140 5b 05 b9 be 6a 20 7c bd ef f0 00 3e a7 bd b0 3d
       -0.36136898 -0.06155435 0.12591909 0.08629923
000150 0e a9 ac 3b 8a 34 3e 3e f4 86 2c 3d ba 41 a3 be
       0.0052691763 0.1857473 0.04212089 -0.31886083
000160 19 7c 86 be d0 39 a3 be d2 23 4e be ec d5 3a be
       -0.26266554 -0.31880045 -0.20130852 -0.18245667
000170 43 d7 55 3d 92 03 00 3f c2 9e 5f bd 3a 81 5e 3d
       0.052207243 0.5000545 -0.054594763 0.05432246
000180 37 44 d8 3d e1 70 35 bd 58 da b6 3d 33 14 c1 3e
       0.10559886 -0.044297103 0.089283645 0.37710723
000190 04 e3 cb be 00 43 1d 3e f5 ce ed bd 77 56 0f be
       -0.39821637 0.1535759 -0.116117395 -0.13997827
0001a0 bd 97 4c be 98 f7 23 be c9 71 3e be a0 02 96 bd
       -0.19979759 -0.16012418 -0.18598093 -0.073247194
0001b0 a1 93 d7 be e5 41 6e be a1 3a 14 be 57 b7 3b be
       -0.4210482 -0.23267324 -0.1447549 -0.18331657
0001c0 70 87 82 3e 68 ac a7 3d ba f7 a2 3e 6a 25 03 be
       0.25493956 0.08187181 0.31829625 -0.12807241
0001d0 24 aa 64 be ef 25 d4 3d 2f dc b1 3c 9d 4a c1 3b
       -0.22330528 0.10358798 0.021711437 0.005898787
0001e0 a0 6b 0c be cf 24 a9 bc 87 c1 e5 3d 94 52 94 be
       -0.1371293 -0.020647435 0.11218553 -0.28969252
0001f0 17 64 1e be 5b 9c 09 3e 66 e9 4a be 1b 9d d5 3d
       -0.15467869 0.13438551 -0.19815597 0.10430356
000200 9a 7f ef 3e dc 7c 69 3e fd 4f 92 3e 8b 99 38 be
       0.4677704 0.22801536 0.2857665 -0.18027322
000210 2d 22 bb be 16 b0 c0 bd 07 0f 60 3e 67 8a 97 bd
       -0.36549512 -0.09408586 0.21880732 -0.07399445
000220 26 55 1c 3c 09 b9 03 be 30 4f 23 bc 05 b4 3f 3c
       0.009541785 -0.12863554 -0.00996761 0.011700635
000230 c8 48 54 be 70 25 05 be 3f 25 86 3c b9 b1 50 be
       -0.20730889 -0.13002563 0.016375182 -0.20380296
000240 31 f2 24 3d d9 59 86 3e 79 9a 06 3d 84 f1 27 3e
       0.040270034 0.26240423 0.03286216 0.16400725
000250 46 d0 8a 3e 42 79 73 be 78 00 91 3d 9e 74 2b 3e
       0.27112025 -0.23776725 0.070801675 0.16743705
000260 93 e8 ce be 37 4b ac 3e 04 e4 53 3e 27 11 24 3e
       -0.40411815 0.33651134 0.2069245 0.16022168
000270 87 11 9b be cf 0f 8e be e6 cd 06 bd c1 d2 3e be
       -0.3028681 -0.27746436 -0.032911204 -0.18635084
000280 4b 96 93 3e be aa 8a 3d bc a6 7b 3c 38 13 e3 3d
       0.28825602 0.06770848 0.015359577 0.1108765
000290 8a 87 b9 3d a1 9e b4 bd f8 4e af bd 29 ad 90 3d
       0.09059055 -0.088193186 -0.08559984 0.07064278
0002a0 8c e8 00 be d8 47 45 be a8 82 b2 be 5b 22 29 3e
       -0.1258871 -0.19265687 -0.34865308 0.16517012
0002b0 70 de 36 3d d7 3c 9e 3e 3b 44 ea 3d d2 f7 2e 3c
       0.044645727 0.30905792 0.11438795 0.010679202
0002c0 9a d0 2b bd b0 7d 14 3e 87 d5 27 bf a7 68 4f 3d
       -0.041946985 0.14501071 -0.6556019 0.050636914
0002d0 ba 19 5d bd 51 cd 6f be 9a 32 90 3c 38 d4 2e 3c
       -0.053979613 -0.23418166 0.017602254 0.010670714
0002e0 ed 2a 51 bd 4f b3 be bd 6d 1b 6a 3d 43 08 70 bd
       -0.051066328 -0.09311544 0.05715506 -0.05860163
0002f0 fa b8 c2 bd 4c 08 dd be 96 44 8a be 28 f2 03 be
       -0.09507938 -0.43170393 -0.27005452 -0.12885344
000300 3f 8f ad be 4a ca 24 be 7a 7f c1 bd 6a 2f 95 3e
       -0.3389835 -0.16092792 -0.09448142 0.29137737
000310 d4 97 14 3e 59 2e 85 3d 2f 10 d9 39 96 41 84 3d
       0.14511043 0.06502981 0.00041401523 0.06457822
000320 eb c1 96 3d 8c d4 a8 3d d5 ca 2d 3e b1 a2 27 be
       0.07361206 0.08243665 0.16971906 -0.16370656
000330 45 69 59 3e 79 16 40 bf 23 68 8a bd 10 70 b5 be
       0.21231563 -0.7503429 -0.06758144 -0.3543706
000340 3a bc b4 3e a7 8c db bd 38 e7 c4 3e 63 cf 4c 3e
       0.35299855 -0.10720187 0.38457656 0.20000987
000350 77 4a 18 3e d4 b8 67 be 2c 94 c2 bc bc 65 3e 3e
       0.14872156 -0.226291 -0.023752294 0.18593496
000360 6d d9 b1 3d 27 4d ac 3c e3 07 48 3e d5 02 f4 bd
       0.08684049 0.021032883 0.19534259 -0.11914603
000370 64 58 02 be c3 75 4f bd 91 fa 7a be e6 31 16 be
       -0.12729031 -0.050649416 -0.24509646 -0.14667472
000380 5a 24 0a bf 8d 5e b6 3d 8f 70 aa bd 2e bc 26 3d
       -0.5396172 0.08904753 -0.0832225 0.040706806
000390 ec f3 1f 3d f4 cc 27 bd 52 af fa bc c3 1e 89 3e
       0.03905098 -0.040966943 -0.030601177 0.26781282
0003a0 6b 76 5a 3e e1 e4 f5 bd 66 b3 9a 3d d7 61 88 3d
       0.21334235 -0.12006546 0.07553749 0.066592865
0003b0 48 67 cd 3e 60 95 5f 3e c3 1b db 3d a8 d8 1f 3d
       0.4011786 0.21834326 0.106986545 0.03902498
0003c0 bf f4 47 be b1 f1 fa 3d ea 3d 22 3d 51 6c 9a 3e
       -0.19526957 0.1225313 0.039609827 0.30160764
0003d0 9e a0 a4 3c 28 06 1f 3e 09 e5 c7 be 70 53 bd bd
       0.02009612 0.15529692 -0.39041927 -0.0924443
0003e0 cb 38 c8 3c 91 d1 7f be 12 19 86 bd 23 a1 1f 3e
       0.024441143 -0.24982287 -0.065477505 0.15588813
0003f0 5c a6 60 ba 1f 8e 1c 3f b4 71 2c 3d 02 cc 29 3e
       -0.00085697114 0.6115436 0.042100623 0.16581729

policy_net.0.bias f4 [64]
000000 62 fa 19 be ce e7 e8 bd d4 d2 e8 bc 95 0b eb bd
       -0.1503692 -0.11372338 -0.028420843 -0.114768185
000010 95 a9 52 bd 40 5e 8d 3d 00 4b 51 3c 63 f5 70 bd
       -0.051431257 0.069027424 0.012774229 -0.05882777
000020 dc 1b 3b 3d b5 82 10 3d 8c bd e7 bb 0e 93 f5 3d
       0.045680866 0.035280902 -0.0070721563 0.11990939
000030 08 58 21 3d 2c 85 c8 bd 26 45 e3 bc 30 d8 be bc
       0.039390594 -0.097910255 -0.027742933 -0.023296446
000040 92 69 a0 3d cf dc b2 3d 3f 46 c0 3d 31 dc 89 3d
       0.07832636 0.08733522 0.093883984 0.06731451
000050 6b b0 14 3b 5f 80 58 3d e1 2d bb 3d b0 c8 54 bd
       0.002268816 0.0528568 0.0913961 -0.051949203
000060 dd 37 72 3d 7e 83 a3 3d d0 9a 54 3d 34 07 5b bc
       0.059135307 0.079840645 0.051905453 -0.013368417
000070 10 d5 8c ba a1 0e 7d bc 4c 9b 02 3d 45 4c 2c bd
       -0.001074465 -0.015445382 0.031886384 -0.042064924
000080 2d b1 d4 3d 23 25 26 3e 3f 6a ee bc 8c d6 d3 3d
       0.10385356 0.16225104 -0.029103396 0.10343656
000090 97 f3 5e bc 63 9a 93 3d 45 76 65 bd 81 4f e5 bd
       -0.013607881 0.07207181 -0.056020994 -0.11196805
0000a0 61 dc bd 3d 48 10 85 bd a7 e1 0b 3d a6 f9 14 be
       0.092705496 -0.06497246 0.034150746 -0.14548358
0000b0 17 63 a3 bd df 2e 8d bd 0b 4a c4 3d 60 5e eb 3d
       -0.07977884 -0.068937056 0.09584435 0.1149261
0000c0 69 2c 46 3d 07 8a 58 3d 9c 1b af 3c 49 85 11 3e
       0.048382197 0.052866008 0.02137547 0.14211
0000d0 f8 34 47 bc 87 c7 3e 3c 54 90 a3 bd 56 20 b7 bd
       -0.012158625 0.011644251 -0.07986513 -0.089417145
0000e0 7f 4f c4 3d 52 ea 81 3d 9f 17 5c bc 95 e9 45 3d
       0.09585475 0.06343521 -0.013433366 0.048318464
0000f0 47 95 28 bd 06 1a a6 bc 7d 47 cc 3d c3 f2 4f 3d
       -0.041157987 -0.02027608 0.09974573 0.050768625

policy_net.2.weight f4 [64, 64]
000000 f4 7a ed bd f8 fa 14 be f6 53 88 3e e1 4e 2d bd
       -0.11595717 -0.14548862 0.26626557 -0.042311553
000010 e5 58 a2 3e a7 d3 f7 3e 6e 06 00 3c 22 83 36 bd
       0.31708446 0.48403665 0.007814033 -0.04455865
000020 0d b7 ed bd 7f 35 23 be 1f ec d4 3d 09 e2 bf be
       -0.1160718 -0.15938376 0.10396599 -0.3747714
000030 ec f9 ff bd 77 42 27 be 52 e7 40 be 25 8f 80 be
       -0.12498841 -0.16333948 -0.18838242 -0.2510921
000040 4f 12 d6 bd 33 ee 2b be 95 66 08 3d 3e eb 61 3d
       -0.10452711 -0.16790085 0.033300955 0.055155985
000050 bc d4 57 be df 46 82 3d aa 2b eb bd d7 a0 08 be
       -0.21077245 0.06361174 -0.11482938 -0.13342606
000060 ba 28 3e bd 0a f2 d4 bb 7a 38 a3 be 40 14 42 be
       -0.04642556 -0.00649858 -0.31879026 -0.18953037
000070 bd c1 d1 bd a9 55 90 3d b1 9b 92 be 5e f7 1c bb
       -0.10242031 0.070475884 -0.28634408 -0.0023951153
000080 23 6b e2 3d 1b 5c fd bd 50 9c 39 3e e9 4e a7 3d
       0.11055591 -0.12371083 0.18126035 0.08169348
000090 54 82 8e 3d 16 78 ac be e3 48 53 be 9e a6 9f 3e
       0.06958452 -0.33685368 -0.20633273 0.31181806
0000a0 9c 80 04 3e e2 b8 99 3e 88 05 3c bd 2e ba 21 be
       0.12939686 0.30023867 -0.045903713 -0.15793678
0000b0 54 8d 3e 3e 71 07 4b be b8 67 df bd c5 98 6f be
       0.186086 -0.19827057 -0.10908455 -0.2339812
0000c0 10 00 ba 3e b5 89 c3 be 54 8a fe bd 99 6b d8 be
       0.36328173 -0.38191 -0.12428728 -0.4226959
0000d0 67 a0 3b 3e c5 14 0f bf 50 10 14 be 41 e5 23 3e
       0.18322907 -0.55891067 -0.14459348 0.16005422
0000e0 3a 13 d0 bc 82 69 c8 bd 8c 38 30 be 40 73 b3 3d
       -0.025399793 -0.09785749 -0.17209071 0.087622166
0000f0 ab 57 39 3c ae 7b 90 be 53 35 c9 bd 18 61 1d be
       0.011312406 -0.2821936 -0.09824624 -0.1536907
000100 49 49 e8 3d 57 8c 21 3e 5f 19 70 be 8a 31 eb 3d
       0.11342103 0.15776192 -0.23447178 0.11484058
000110 49 36 13 bd 46 73 cf be c4 f3 b7 bd e9 67 3e be
       -0.035940442 -0.40517634 -0.089820415 -0.18594326
000120 a5 e2 92 bc 86 e8 20 3e 31 90 ae bd ef dc a5 3e
       -0.017930338 0.157137 -0.08523596 0.3239512
000130 8a 93 21 3e a6 8f 2f bd 16 0e 5a be 5d 55 f0 be
       0.15778938 -0.042861603 -0.21294436 -0.46940127
000140 8b 5f b7 bd 99 4e 76 be 74 d6 3d bd fb c4 af 3e
       -0.0895377 -0.2405342 -0.046347097 0.34329972
000150 5b 2e 1f 3f b2 a8 56 3d 1d f4 fb bc 5b a1 fc bd
       0.6218011 0.052406974 -0.03075605 -0.123354636
000160 8a e4 24 be 3e 77 e6 be 0e 16 05 3d d4 16 3c 3e
       -0.16102806 -0.4501285 0.032491736 0.18368083
000170 1a 2f 55 bd ed b7 61 3e 0f 6e 9e 3e a6 d9 49 3e
       -0.052046873 0.22042818 0.30943343 0.19711933
000180 55 35 39 be 39 5d 16 be 36 8c 77 3e 25 a9 63 3e
       -0.18086751 -0.14683999 0.2417458 0.22232492
000190 a0 95 0c be ab e0 5e 3e a9 9f b7 3e fe e7 53 3d
       -0.13728952 0.21765392 0.35864 0.051734917
0001a0 db d2 18 3e 98 19 e8 be f9 24 2f be db 6b 39 3e
       0.14924185 -0.45332026 -0.17103948 0.1810755
0001b0 1d c5 1c 3d 1d 01 14 be 3f 59 0a bc f2 5c e6 3c
       0.03827392 -0.1445355 -0.0084441295 0.028120492
0001c0 fa f5 b4 bd 95 15 d0 3d a9 f6 f8 3d b2 c7 dd 3c
       -0.08835979 0.101603664 0.12156422 0.027072761
0001d0 4b 28 5a bd 88 9a 4d 3e 8c eb cc bd f5 69 08 be
       -0.053261083 0.2007848 -0.100058645 -0.1332167
0001e0 f3 10 be 3d 5f e7 80 3e 0e 09 03 3e 62 3d 38 3d
       0.092805766 0.25176522 0.12796423 0.044980414
0001f0 ed f3 16 3e 58 0c a1 be 37 fe 5a bd a4 1a f5 3d
       0.14741488 -0.3145473 -0.053465094 0.11967972
000200 3b ad 5f 3e d3 92 33 be cc ae 97 ba d8 1e 16 3d
       0.21843426 -0.17536478 -0.0011572479 0.03665051
000210 62 60 68 be 95 b3 d2 bd 4b 38 55 bd 0a bc 3b 3e
       -0.22693017 -0.10288159 -0.05205564 0.1833345
000220 7a 37 bc 3d c8 2a 03 3d 27 10 7c be 6f a0 97 3d
       0.09190269 0.03202322 -0.24615537 0.07403647
000230 05 92 4e 3c c3 f6 67 bc 78 a5 0a bc dc d9 8b bd
       0.012608056 -0.014157954 -0.008462302 -0.06828663
000240 4a f2 03 bf 86 2a 80 3d 84 d9 bd 3e f3 c8 75 be
       -0.5154158 0.06258111 0.37080014 -0.24002437
000250 48 e5 22 be 3e 64 56 be f6 ff 6b bc 3f a9 60 3e
       -0.15907776 -0.20936677 -0.014404288 0.21939562
000260 05 ce 38 be 67 32 0e 3d ea ef 28 3e e0 9c 00 bf
       -0.1804734 0.034716036 0.1649777 -0.5023937
000270 0c 35 b9 be d4 bb a6 bd 30 72 1d 3c a3 e0 5c be
       -0.36173284 -0.08141294 0.009609744 -0.21570067
000280 5b a6 97 3e 88 a5 de 3d 50 94 cc ba 03 5b 2c 3e
       0.29619107 0.10871416 -0.0015608165 0.16831593
000290 14 1e f5 3d 46 2b 07 be 06 eb 67 be 7c 18 42 bd
       0.119686276 -0.13200101 -0.22648248 -0.04738663
0002a0 e9 c7 be 3d 5d a7 5f be e3 b5 34 3e 53 9f 2c 3c
       0.093154736 -0.21841188 0.1764751 0.010536033
0002b0 0c af 92 be 03 c1 3a be a0 af 1e bd 45 81 be 3c
       -0.28649175 -0.1823769 -0.038741708 0.023255
0002c0 c0 13 6f 3e 28 db 5f bc 67 a9 ac bd 08 b2 86 3c
       0.23347378 -0.013663091 -0.084307484 0.016442314
0002d0 69 19 89 be d3 da 81 3d a3 93 3c be 2f 46 ea bd
       -0.267772 0.063405655 -0.18415694 -0.11439168
0002e0 d5 5f c3 3e c0 0a 3c 3e e2 cd f9 3d b4 56 2e be
       0.38159052 0.18363476 0.12197472 -0.17025262
0002f0 89 5e 16 be cd e3 5e be 9c 8f 6f bc b6 91 84 be
       -0.146845 -0.21766587 -0.0146216415 -0.2589242
000300 d4 c0 f6 3c 16 e3 ca bd b6 96 0f bd e9 6e d3 bd
       0.030121244 -0.099065945 -0.03505584 -0.10323889
000310 2a d9 1d be 62 c5 c6 ba 7a 89 45 be 66 a1 d0 3b
       -0.15414873 -0.0015165026 -0.19290724 0.0063668964
000320 19 59 82 3e 50 bf 64 be 01 ce 2c 3d f9 75 aa be
       0.254586 -0.22338605 0.042188648 -0.3329313
000330 7b 71 f5 3d 27 51 b5 3d 2b 96 26 3e 36 06 c7 3d
       0.11984535 0.08853369 0.16268222 0.097179815
000340 72 2b e8 bd 03 f6 0e 3e ed d4 a1 3e 07 6d ae 3e
       -0.113364115 0.13961034 0.31607762 0.34067556
000350 5b 06 e6 bd c0 19 88 3c 58 c5 92 bb 5a a9 88 be
       -0.11231681 0.016613841 -0.0044790916 -0.26691705
000360 03 2a ba be 94 18 16 bf b1 df 25 3e b0 e2 92 3d
       -0.36360177 -0.58631253 0.16198613 0.071721435
000370 b7 70 4c 3b b7 bf ed bd 73 1a 09 3d 84 ed 17 3e
       0.0031195113 -0.11608832 0.03347249 0.14836699
000380 51 0f 14 be fd 95 0d 3e a0 7c 80 bd 7c a6 68 bc
       -0.14458968 0.13826747 -0.0627377 -0.014199849
000390 d1 23 a4 3d f2 d7 2d 3d 61 2f e2 bd 10 a7 8f be
       0.08014644 0.04244227 -0.11044193 -0.28057146
0003a0 73 e9 f4 3d 9b f5 77 3e 5f 1c a5 3d 38 16 06 be
       0.119585894 0.24214785 0.08062052 -0.13094413
0003b0 2d c0 a9 3e 3b b7 50 3e fa 94 59 bd a3 88 77 3e
       0.3315443 0.20382397 -0.05312059 0.24173217
0003c0 2f e1 3b be 72 57 b3 be b5 83 86 3e 58 a2 87 3e
       -0.1834762 -0.35027653 0.2627236 0.26491046
0003d0 e2 58 53 be 46 ca f0 bd 04 3f 1f 3c 21 18 c7 bb
       -0.20639375 -0.117573306 0.009719614 -0.0060758744
0003e0 dc 6a a1 3e 50 c2 82 3c 08 4b 32 3e da 46 43 3e
       0.3152684 0.015961796 0.17411435 0.19069996
0003f0 94 70 80 3b bc 8b ab 3c 13 97 5b 3e a6 38 3e 3e
       0.0039196704 0.020940654 0.21444349 0.18576297

policy_net.2.bias f4 [64]
000000 cf d8 5c bd d1 07 08 3d e6 b7 e8 3d fd a9 be 3d
       -0.053917702 0.03321058 0.11363201 0.093097664
000010 c5 b4 c2 3d 59 b9 f2 3d 9d 89 38 3d e5 f3 7c bd
       0.09507135 0.118517585 0.045053113 -0.061756033
000020 2b c0 0d 3d 35 c1 d5 3c 30 cf dd bd 4f 20 67 bd
       0.034607094 0.026093105 -0.108305335 -0.056427296
000030 1d 36 94 bc 21 98 5e bc cc f0 75 bd 78 41 da 3d
       -0.01809221 -0.013586075 -0.060044095 0.106570184
000040 94 63 33 bd db a6 aa bd c3 72 29 3d 1d 72 e7 b9
       -0.043796137 -0.083326064 0.04136921 -0.00044144774
000050 d0 f1 a9 bd d0 d3 05 be fe 63 13 bd 4f d2 15 3d
       -0.08298075 -0.13069081 -0.03598403 0.03657752
000060 ec 63 a4 bd 29 07 00 3d 59 e6 71 bd 7d 1a 51 bd
       -0.08026871 0.03125683 -0.059057567 -0.05105065
000070 3a f4 e6 3d 9a ac 1a bd 17 7a 80 bd e6 83 8a 3d
       0.11277051 -0.037762262 -0.06273287 0.06763439
000080 d3 1e 06 be 5f 14 17 3b 28 7b ab bd 4e e8 8b 3b
       -0.13097696 0.0023052914 -0.083730996 0.0042696362
000090 62 bb 93 3d 5c 48 f7 3d 91 77 fb bb 59 0d a8 3d
       0.07213475 0.12074348 -0.0076741655 0.08205671
0000a0 fd 14 b5 bd 7b 21 c3 bd 04 4c be bd 1e 71 6b 3d
       -0.08841894 -0.0952787 -0.092918426 0.057480924
0000b0 99 f1 2a bd 3c 10 ce 3d 88 51 26 bd 39 37 a7 bc
       -0.04173431 0.1006169 -0.040605098 -0.020412074
0000c0 56 c2 93 bd 26 c4 91 bd 4a b7 6c bd 6a c4 5e bd
       -0.07214801 -0.071174905 -0.057791986 -0.054386534
0000d0 11 79 0e bd 47 1e 9f 3d 34 02 9f 3c 1f 1c 89 bc
       -0.034783427 0.07769447 0.01941023 -0.016737042
0000e0 27 ed e3 bd 2d 70 88 3c 11 dc 5c 3c f1 92 d4 bd
       -0.111292176 0.016655052 0.013480202 -0.10379589
0000f0 98 9c 22 bd bf 30 3e bd 71 35 26 be 63 4b cd 3c
       -0.03970012 -0.046433207 -0.16231324 0.025060361

action_net.weight f4 [5, 64]
000000 5f ce 80 3d dc 64 99 bd db c8 17 3e 57 bf 83 3d
       0.06289362 -0.074899405 0.14822714 0.064329796
000010 af 45 3c 3e b7 23 11 3c e6 c7 b2 3d fe 1c 74 bd
       0.18385957 0.008858613 0.08729534 -0.05959796
000020 7c 01 aa bd ca 1f 83 bd 43 37 eb bd 57 0c 09 3d
       -0.08301064 -0.06402548 -0.1148515 0.033459034
000030 5d a3 f6 bc 6e fb aa 3c 2b 91 9e 3b 3c 98 e6 bc
       -0.030107195 0.020871844 0.0048390827 -0.028148763
000040 b7 bd 87 3d 45 82 01 bc 71 f9 23 bd c8 38 87 3d
       0.06627982 -0.007904594 -0.040032808 0.06602627
000050 d5 cb 24 be 69 1e 33 be 9b 2e 20 3d ee ec 1c be
       -0.16093381 -0.1749207 0.039106946 -0.15324757
000060 d1 2d 34 be de 29 96 bd 7a 75 5b bc 18 27 80 3d
       -0.17595603 -0.07332204 -0.013394708 0.062574565
000070 89 58 2c 3e 9f cb 61 bc 56 7f 6d bc 85 f6 f5 3b
       0.16830648 -0.013781457 -0.014495691 0.007506194
000080 56 d2 3f be 68 95 18 bd 63 17 08 be b0 de ca 3b
       -0.1873258 -0.03725186 -0.13290171 0.006191097
000090 52 07 f4 3d 15 3d 17 3e 3f 8b 2a 3d bf a4 06 3e
       0.11915459 0.14769395 0.0416367 0.13148783
0000a0 c0 c0 4f bc 75 d0 a8 bd b0 33 b9 bd a4 2a f1 3d
       -0.0126802325 -0.08242885 -0.09043062 0.11775711
0000b0 bb 81 8b bd c0 59 1c 3d 14 93 8c bd 82 99 73 bd
       -0.068118535 0.03817153 -0.068639904 -0.05947257
0000c0 80 9e f4 bd 82 b8 5f bd 5a 95 0d be 7b c6 2e 3d
       -0.11944294 -0.05461932 -0.13826504 0.042669754
0000d0 b3 38 ac bd 97 7b e8 3b 27 2b b6 bd 91 57 bc bd
       -0.08409252 0.007094811 -0.088949494 -0.091963895
0000e0 46 12 6b be f1 e8 05 bd 70 27 ca bb 98 da 4f bd
       -0.2295619 -0.032692853 -0.006169252 -0.050745577
0000f0 9e 6c 76 3d d5 84 9f bc cd 2a d5 bd d3 0d fa 3c
       0.06016218 -0.019472519 -0.10408554 0.03052417
000100 68 45 74 bc 7e 77 ce 3c 08 e3 f2 bd 86 e9 e2 3d
       -0.014909126 0.025203463 -0.11859709 0.11079697
000110 9d 50 07 be cb 21 b2 bc 6f 4f 99 3d 35 8b b2 3d
       -0.13214345 -0.02174463 0.07485854 0.08717958
000120 91 b4 4a 3e bd 01 3a 3e 9d da 78 3e 47 df f2 bd
       0.19795443 0.18164726 0.24302144 -0.11858993
000130 b7 05 88 be c2 3c 69 be 05 ea 40 bd a9 90 56 3d
       -0.2656686 -0.22777084 -0.04709818 0.052384052
000140 2b db bd 3d b9 34 42 bd dc 19 04 be df e3 37 bd
       0.092703186 -0.04741356 -0.1290049 -0.04489505
000150 67 8d ae 3b 04 e2 e1 3d 5d 8b 19 bc 69 dc 1d 3d
       0.005326915 0.11029437 -0.009371606 0.038540278
000160 9b 6f 45 3d 7d 25 d9 bd 3e 85 c9 3d 2a fa b1 bb
       0.04820214 -0.106028534 0.09839867 -0.005431433
000170 f3 3e 58 bd 30 28 a4 3e b8 7c f5 3d dd 0d ce bc
       -0.052794408 0.3206191 0.11986679 -0.025153095
000180 fb 95 66 bd 4f 14 9d bd 8e 1d b3 bd dc fb 98 bd
       -0.056295376 -0.07669889 -0.087458715 -0.07469913
000190 be 10 c0 bc b8 04 70 be 3c fc 59 be 37 73 2e be
       -0.023445483 -0.234393 -0.21287626 -0.17036138
0001a0 be 11 c6 bc 0b e6 4c 3e 76 65 ff 3d 4e dc ee 3d
       -0.024178382 0.2000963 0.12470524 0.116631135
0001b0 40 90 46 3e d9 0f c6 bd 39 02 89 3d 78 03 5c bd
       0.19390965 -0.096709915 0.06689877 -0.053714246
0001c0 01 64 45 bc a0 78 13 3e 29 7c 9c 3c 27 14 8f bd
       -0.012047769 0.14401484 0.019102173 -0.06986266
0001d0 26 06 30 3e ee 5b 38 3d 3e 3f af 3c c5 61 0b 3e
       0.17189845 0.045009546 0.02139246 0.13611515
0001e0 ee 91 26 3e 7e e1 25 be 6e da 34 3e cb f7 f6 3d
       0.16266605 -0.161993 0.1766145 0.120589815
0001f0 0a c5 04 3e fa 48 e2 38 63 1e af 3d be 42 a8 3d
       0.1296579 0.00010790113 0.08550718 0.08215855
000200 ef 1a f0 3c cc fd 6c bc be 63 a1 3c 41 d3 c7 b8
       0.029309718 -0.014464807 0.019700881 -9.5284086e-05
000210 f9 dd f6 3c e5 42 c1 3d 18 68 fb bd e4 10 28 bd
       0.030135142 0.09436587 -0.12275714 -0.041031733
000220 2a 0a 07 3c 0c bf 3f 3d ed 3b 1e bd 7d 9a f8 bd
       0.008242169 0.046813056 -0.03863137 -0.12138841
000230 f5 e6 ae 3d 1d 78 34 3e 58 eb ef bd 43 38 45 3d
       0.08540145 0.17623945 -0.1171481 0.04814936
000240 10 7c 90 bd 3a e1 b6 bd 9c 6f 7e 3e 43 92 9a bc
       -0.07054913 -0.08929677 0.24847263 -0.018868571
000250 87 2c ca bd 0b 5c bb 3d 76 37 0c bb 2e 7c 52 3e
       -0.09871774 0.09148415 -0.0021395362 0.20555183
000260 b7 63 fb 3c 5d 3d 0e 3e 20 44 f7 bd 29 9c 08 be
       0.030687196 0.13890596 -0.12073541 -0.1334082
000270 ca c4 15 3c 46 e3 33 be 12 65 cd bd 4b 24 a2 bc
       0.009141156 -0.17567167 -0.10029043 -0.019792696
000280 6b da 09 bc 59 f2 92 3d 0f a2 d1 3d bb 4b 63 bd
       -0.008413891 0.071751304 0.10235988 -0.055492144
000290 fd 43 06 bd cf 85 28 3e 20 c6 3d 3e ef 80 3a 3d
       -0.032779682 0.16457294 0.1853261 0.045533117
0002a0 05 38 47 3d 56 9e 0a be 70 1b eb bd 64 e9 6a bd
       0.04863741 -0.13536963 -0.11479843 -0.057351485
0002b0 ef 39 ed bd 95 cb 49 3e 00 22 02 3c c6 c5 9e 3b
       -0.115833156 0.19706567 0.007942677 0.004845354
0002c0 a2 e6 6a bd 37 19 ff bd 05 d2 a4 3d 65 8b 5e 3c
       -0.057348855 -0.12455981 0.080478705 0.013583039
0002d0 21 9c 2b be 07 3c 6c 3d a4 b0 24 3e 51 cc 19 be
       -0.16758777 0.057674434 0.16083008 -0.15019347
0002e0 8b f8 85 3d a3 29 88 3e 5a 45 cc bd 60 4c 0e be
       0.065415464 0.26594266 -0.09974165 -0.13896322
0002f0 98 3c 4c be 17 d4 00 bd 50 29 ba 3d 65 df e8 bd
       -0.1994499 -0.031452265 0.09089911 -0.11370734
000300 5c 08 56 be 0a 1f 71 3e e8 ba 82 bc 4c 03 bc bd
       -0.20901626 0.23546997 -0.015958264 -0.09180316
000310 f0 1f 0c be 66 f9 19 3d 3c ae 19 3e 83 01 b6 3d
       -0.13684058 0.03759136 0.15007871 0.08887007
000320 37 34 77 3b c5 34 a1 3c d5 dd 99 bd eb 77 18 3d
       0.0037720331 0.019678483 -0.07513014 0.037223738
000330 1d a3 5b 3e 68 c1 08 be 20 28 81 3d b5 63 ff bd
       0.21448942 -0.13355029 0.06306481 -0.124701895
000340 f3 fc 98 bd 5b 7a 9d 39 c7 b4 84 bc b3 e5 17 be
       -0.07470121 0.00030036535 -0.016199483 -0.14833717
000350 c8 c9 b1 3e a9 0a b7 3b 01 16 46 be 4e 29 3e bc
       0.3472426 0.0055859876 -0.19344331 -0.0116065275
000360 ae 9e 31 3e 31 e6 df bd c0 2e 16 be 41 e6 31 bd
       0.17345688 -0.109325774 -0.14666271 -0.043432478
000370 31 e8 64 bd bc c7 5e 3d f2 27 5c 3b ab 0a 11 bc
       -0.055885497 0.0543897 0.0033593145 -0.008852641
000380 04 c9 59 3e 7b 0d 32 bd d9 6f 90 3d ac 04 f6 3a
       0.21268088 -0.043469887 0.07052583 0.0018769703
000390 de 85 1b be 44 6c c2 bd 1b c9 00 be 38 f3 04 3d
       -0.15187785 -0.09493306 -0.12576716 0.032458514
0003a0 95 1c 1a bd 52 fd dc 3d 7d 80 9e bd ba 69 30 be
       -0.037624914 0.107905045 -0.07739351 -0.17227831
0003b0 10 6b 06 be 3d 6c 94 bd 8d 52 e2 bd 52 47 89 3e
       -0.13126779 -0.07247207 -0.110509016 0.26812226
0003c0 a7 08 ce 3d cc a2 df 3c 03 42 19 3e 71 cf 2a be
       0.10060244 0.027299307 0.14966588 -0.16680695
0003d0 60 60 eb 3c 1b d3 cc bd 1d 7d 45 3d f9 04 9c 3d
       0.028732479 -0.10001203 0.04821502 0.07618136
0003e0 1f 2e b0 3d 09 4d eb bd dc 0b 34 be 0a 9c 0e 3d
       0.08602547 -0.11489303 -0.17582649 0.03481678
0003f0 4e 93 95 3d 7c e0 1b 3e 38 fd ad bd 9e af 37 3d
       0.07303487 0.15222353 -0.08495563 0.044845216

action_net.bias f4 [5]
000000 09 2f 00 3e 96 cb 83 bc 16 58 57 3d 08 3b 85 bd
       0.12517942 -0.016088288 0.05257424 -0.065054
000010 d6 4a ca bd
       -0.09877555
