submissions/aguerouani/predator_model.pth (torch, 154613 bytes, 6 tensors)

policy_net.0.weight f4 [256, 16]
0	0xbdbfbe08	-0.093624175
1	0x3ea869be	0.32893175
2	0xbe09ee61	-0.1346984
3	0x3d790a96	0.06080111
4	0xbe0a2113	-0.1348918
5	0x3d7e69b4	0.062112525
6	0xbdf38045	-0.118897
7	0xbd42a059	-0.0475162
8	0x3d91a71b	0.07111951
9	0x3dae77c3	0.085189365
10	0xbce34758	-0.02774398
11	0xbd976aea	-0.07393439
12	0x3da05b2d	0.078298904
13	0xbec41c7c	-0.38302982
14	0x3da6b957	0.081408195
15	0xbd0ae46c	-0.033909246
16	0x3df13915	0.11778466
17	0xbde17e53	-0.110104226
18	0x3e77a913	0.2418559
19	0x3bea8bc0	0.007157773
20	0x3e3942db	0.1809191
21	0xbce92e60	-0.028464496
22	0x3deb6d69	0.11495478
23	0x3dc07bf1	0.0939864
24	0xbcc5bf70	-0.024139136
25	0x3bd0aa24	0.0063679386
26	0xbda7d056	-0.08194034
27	0x3d5569e2	0.05210293
28	0x3cadbe04	0.02120877
29	0x3e935431	0.2877517
30	0x3dff4876	0.12464993
31	0x3d6b8f54	0.057509735
32	0xbcdf1971	-0.027233811
33	0xbe05a5c9	-0.13051523
34	0x3e0ce32d	0.13758536
35	0x3c26068e	0.010133399
36	0x3e12074f	0.142606
37	0x3d4250a5	0.04744019
38	0xbd927a45	-0.07152227
39	0xbd0048f2	-0.031319566
40	0xbdb8b93c	-0.09019706
41	0xbddf8130	-0.109133124
42	0x3da362f0	0.07977855
43	0x3da47f49	0.0803209
44	0xbee8c721	-0.45464423
45	0x3eb6c742	0.35698897
46	0x3da3624e	0.079777345
47	0x3c80ce6d	0.015723431
48	0xbdb8b2c2	-0.0901847
49	0xbc3771bd	-0.011196551
50	0xbdda318e	-0.10653983
51	0xbd698e25	-0.057020325
52	0x3da30de1	0.079616316
53	0x3cbb3cdd	0.02285617
54	0xbcea9897	-0.028637214
55	0x3dd52b21	0.10408617
56	0xbd8aa65d	-0.067700125
57	0xbda8ccfb	-0.08242222
58	0x3d406945	0.046975393
59	0xbe5f27be	-0.21792504
60	0xbe1310e0	-0.14361906
61	0xbdd38513	-0.10328116
62	0xbe986770	-0.29766417
63	0xbe84bdc9	-0.25926045
64	0xbc9cb8d4	-0.019131102
65	0x3e550e42	0.2080622
66	0x3e097f63	0.134275
67	0x3cc8b500	0.02450037
68	0x3ddff028	0.10934478
69	0xbdd81417	-0.10550707
70	0xbc5be358	-0.013420902
71	0x3d5da253	0.054109883
72	0x3e01ed72	0.12688234
73	0x3e4b0b8f	0.19828628
74	0xbdb4669b	-0.08808633
75	0xbd7095e4	-0.058736697
76	0xbe2090c4	-0.15680224
77	0xbebb7617	-0.36613533
78	0xbe944fb8	-0.2896707
79	0xbba63d1c	-0.005073203
80	0x3c32c604	0.010911468
81	0xbd3287e7	-0.043586638
82	0x3e40966c	0.18807381
83	0x3ea6283e	0.32452577
84	0xbe53408d	-0.20630093
85	0x3d0a2391	0.033725325
86	0x3cac0c58	0.02100198
87	0x3e141d2a	0.1446425
88	0xbbb62819	-0.005558979
89	0xbd8d59f9	-0.069019265
90	0xbdccf3ed	-0.10007463
91	0x3d105c00	0.035243988
92	0xbe7b2532	-0.24525908
93	0xbea49361	-0.3214369
94	0x3d92358d	0.0713912
95	0xbdc4f5f6	-0.09617226
96	0xbe141578	-0.14461315
97	0x3da3df70	0.08001602
98	0xbc496a09	-0.012293347
99	0xbdba3a66	-0.0909317
100	0xbdad2f08	-0.08456236
101	0xbc90a568	-0.017656997
102	0xbc3b01dc	-0.0114140175
103	0x3c913f67	0.017730428
104	0xbc925631	-0.017863365
105	0xbd185027	-0.037185814
106	0x3daee74e	0.085402116
107	0xbc861da1	-0.01637155
108	0x3edb65f9	0.42851236
109	0xbe903f73	-0.28173408
110	0x3e34a2b6	0.17640194
111	0xbc10b0b7	-0.008831195
112	0x3e23a298	0.15979993
113	0x3d9bdae4	0.076101094
114	0x3ce45138	0.02787076
115	0x3dbc3c03	0.09191134
116	0xbd1ab268	-0.037767798
117	0xbdd45651	-0.10368026
118	0xbcdfa24d	-0.02729907
119	0xbd9a87e4	-0.0754545
120	0xbcb86610	-0.022509605
121	0x3e3de613	0.18544798
122	0x3d881f20	0.066465616
123	0x3d367666	0.044546507
124	0xbd95f5cf	-0.07322275
125	0xbe1ebb28	-0.15501082
126	0x3c722117	0.014778397
127	0xbdbadc69	-0.09124071
128	0x3d9c2cb9	0.07625718
129	0xbeac974e	-0.33709186
130	0x3e60d5bd	0.21956535
131	0x3da709b2	0.08156146
132	0x3d277c3f	0.040889975
133	0x3e5fbe01	0.21849824
134	0xbd1229fb	-0.035684567
135	0x3b30041f	0.0026857925
136	0xbe287c80	-0.16453743
137	0x3d9797eb	0.07402023
138	0x3e04f275	0.12983115
139	0xbba09e89	-0.0049017114
140	0x3d5d3cac	0.05401294
141	0x3ec62d7d	0.3870658
142	0x3da373f4	0.07981101
143	0x3e3057a2	0.1722093
144	0x3d697168	0.05699292
145	0xbdb8157d	-0.089884736
146	0xbdd8e68e	-0.1059085
147	0xbd752348	-0.0598481
148	0xbe14055f	-0.14455174
149	0xbd3efc72	-0.04662747
150	0xbd620257	-0.055178013
151	0xbca9393b	-0.020657172
152	0x3e5cb3ea	0.21553007
153	0x3ba5fda4	0.0050656367
154	0x3dd90149	0.10595948
155	0x3e1d0342	0.15333274
156	0xbdd8996c	-0.10576138
157	0x3db6c4aa	0.089242294
158	0xbe27ad7e	-0.16374776
159	0xbd503b5e	-0.050837867
160	0xbe1d5caf	-0.15367387
161	0x3eb74f6a	0.35802776
162	0x3ce206aa	0.027591068
163	0xbdee8a10	-0.11647427
164	0x3de4b01a	0.11166401
165	0xbc380a9b	-0.011232997
166	0xbd0ada20	-0.033899426
167	0xbd57fd09	-0.052731548
168	0xbdfbcfeb	-0.122955166
169	0xbd2af6cb	-0.041739266
170	0xbde40820	-0.11134362
171	0xbe1bb42d	-0.1520545
172	0xbbced733	-0.006312275
173	0xbde21372	-0.11038865
174	0xbdf876a5	-0.12132005
175	0xbe5fc181	-0.2185116
176	0x3b95514f	0.004556812
177	0xbcc94db9	-0.024573194
178	0xbb9e0797	-0.004822682
179	0x3c998d99	0.018744277
180	0x3e08c56d	0.13356562
181	0xbb53f568	-0.0032342318
182	0xbd2b18a1	-0.041771535
183	0xbdc05f8e	-0.093932256
184	0xbd7c1d37	-0.0615513
185	0x3d93ff96	0.072264835
186	0x3dc7c109	0.097536154
187	0xbd17a5e7	-0.03702345
188	0x3d5b9a38	0.05361387
189	0x3e8e143f	0.27749822
190	0xbdae0969	-0.084978886
191	0xbcacd739	-0.02109872
192	0x3cd81c0e	0.026380565
193	0x3cc7299c	0.024311833
194	0xbe4867b7	-0.19570814
195	0xbe07be50	-0.13256192
196	0xbd100ef9	-0.03517053
197	0xbd6f68d9	-0.0584496
198	0xbdc6cae2	-0.097066656
199	0x3d607de1	0.054807547
200	0x3dcf77bc	0.101302594
201	0x3b967c85	0.0045924806
202	0xbd3e6c3e	-0.046489947
203	0x3d99fa63	0.075184606
204	0x3d30c093	0.043152403
205	0xbd329280	-0.043596745
206	0xbece33b9	-0.40273836
207	0x3ea6ee49	0.32603672
208	0xbe945151	-0.2896829
209	0x3ddbbef1	0.107297786
210	0x3cb271b3	0.021782732
211	0xbe36a846	-0.17837629
212	0xbdcdeaa3	-0.10054519
213	0x3e2e5b82	0.17027095
214	0xbd7ae525	-0.061253686
215	0xbd818a39	-0.06325192
216	0xbdd3ba76	-0.10338299
217	0x3e2afb3c	0.16697401
218	0xbe148f8f	-0.14507888
219	0x3aba40ab	0.0014209946
220	0x3dfb8a76	0.12282269
221	0xbe72accc	-0.2369873
222	0x3c754456	0.014969906
223	0xbe5668cd	-0.20938416
224	0x3e250650	0.1611569
225	0xbe00b533	-0.12569122
226	0xbd8fa06b	-0.07013019
227	0x3eabc5dc	0.33549392
228	0x3de64683	0.11243918
229	0xbe129e8e	-0.14318296
230	0x3d67ba06	0.05657389
231	0x3d8c163f	0.068401806
232	0xbd323a9a	-0.043512918
233	0x3d1d718b	0.03843836
234	0x3c64672f	0.0139406165
235	0x3d36b674	0.044607595
236	0xbc2ccaba	-0.010546381
237	0x3e3b7b04	0.18308645
238	0xbcaf7b7f	-0.021421192
239	0xbda58cb6	-0.08083479
240	0x3e24a76c	0.16079491
241	0xbe1a4a91	-0.15067507
242	0x3e4493e2	0.19197038
243	0xbd627460	-0.055286765
244	0xbd9e3277	-0.07724469
245	0xbcdad2e0	-0.026711881
246	0xbe00bb1a	-0.12571374
247	0x3db67d37	0.089106016
248	0xbd128488	-0.035770923
249	0xbcf6100e	-0.030036952
250	0x3ca81f0d	0.020522619
251	0xbd55f543	-0.052235853
252	0xbea833d8	-0.32852054
253	0x3ebf3e4c	0.37352216
254	0x3d476e72	0.048689313
255	0xbd2868c9	-0.041115556

policy_net.0.bias f4 [256]
0	0xbaad9e12	-0.0013245961
1	0x3b35195f	0.002763353
2	0x3cd82419	0.0263844
3	0xbb1af22a	-0.0023642876
4	0x3bcaca50	0.0061886683
5	0x3baa83c0	0.005203694
6	0xbc81c007	-0.015838636
7	0x3baa2f4e	0.0051936274
8	0x3c5b7825	0.013395344
9	0xbd16231a	-0.03665457
10	0xbd41ab60	-0.047282577
11	0xbda78543	-0.081797145
12	0x3bf7d8ec	0.007563701
13	0x3d3da1d1	0.0462969
14	0x3cb72606	0.022356998
15	0x3c40f497	0.011777065
16	0x3c3da6fa	0.011575455
17	0x3cb36fe6	0.021903943
18	0xbbb98f57	-0.0056628394
19	0xbbfeacd4	-0.0077720676
20	0xbcec7996	-0.02886657
21	0xbcf534ae	-0.029932346
22	0xbd083c26	-0.033260487
23	0x3cf2cf93	0.029639995
24	0xbce00330	-0.02734527
25	0xbd420efd	-0.047377575
26	0xbb475dc1	-0.0030420872
27	0xbc67ef67	-0.014156199
28	0x3cc36517	0.023851914
29	0xbcfcbf86	-0.030853044
30	0xbce68bca	-0.028142828
31	0x3aac3824	0.001313929
32	0x3d0260d7	0.031830635
33	0xbbcbcf6f	-0.0062197964
34	0xbce5a832	-0.028034303
35	0x3ca2f0f2	0.019890282
36	0x3ce49a13	0.0279055
37	0xba1b0c20	-0.00059145875
38	0xb9616353	-0.00021494673
39	0xbd7e0b9b	-0.062022787
40	0x3be421e9	0.00696205
41	0xbc3de29d	-0.011589673
42	0x3cdd2456	0.026994865
43	0x3c9ae4a8	0.01890786
44	0xbc6443d5	-0.013932188
45	0x3d04ed46	0.032452844
46	0xbd0f252c	-0.03494756
47	0xbced0387	-0.028932346
48	0xbb4ae3cb	-0.003095853
49	0xbcd4369d	-0.025904948
50	0x3d67ccd7	0.056591835
51	0xbd34320d	-0.043993045
52	0x3c94def2	0.018172715
53	0x3c693991	0.014234916
54	0xbc014971	-0.007891045
55	0xbc4080ac	-0.011749428
56	0x3c81852c	0.015810572
57	0x3c73b7fb	0.014875407
58	0x3d645d86	0.055753253
59	0xbc9c7977	-0.019100888
60	0xbc2073d8	-0.009793244
61	0xbc4cb4df	-0.012494295
62	0x3aebf8ff	0.0018003284
63	0xbc84866c	-0.016177379
64	0x3b51aa4a	0.003199237
65	0x3cb82794	0.02247981
66	0xbc65515c	-0.013996448
67	0xbb81c501	-0.0039602523
68	0xbd06adfa	-0.03288076
69	0x3dc41061	0.095734365
70	0xbd8d1ea0	-0.06890607
71	0xbce1543b	-0.027505985
72	0x3bb50de8	0.0055253394
73	0xbdbde6de	-0.0927255
74	0xbd31711c	-0.04332076
75	0xbcf7d5c2	-0.030253295
76	0xbc8151e2	-0.015786115
77	0x3c7e58f2	0.015524136
78	0x3c7513da	0.014958346
79	0xbd01bbaf	-0.03167313
80	0xbd900e22	-0.070339456
81	0xbc5243a3	-0.012833509
82	0xbb2da2d5	-0.002649476
83	0x3cf8d3d9	0.030374454
84	0xbd0d05ea	-0.03442947
85	0x3c0c1c2b	0.008551638
86	0xbd1c88a8	-0.038216263
87	0xbb8c5309	-0.0042823595
88	0xbc92d81b	-0.017925313
89	0x3d46bc6b	0.048519533
90	0x3cd64b21	0.026158871
91	0xbb194cd5	-0.0023391743
92	0x3d7f6cec	0.062359735
93	0xbd8c2766	-0.06843452
94	0xbd0ffe6c	-0.035154745
95	0xbc0c6541	-0.008569063
96	0x3dacd0fb	0.08438297
97	0xbcf43ac1	-0.029813172
98	0xbcc516e4	-0.024058767
99	0xbd3864be	-0.04501795
100	0xbae2caff	-0.0017302929
101	0x3c28eb3d	0.010309991
102	0x3c1d3386	0.009594804
103	0x3d164a75	0.0366921
104	0x3c96f943	0.018429404
105	0xbcb289d6	-0.02179424
106	0x3ca3a77a	0.01997732
107	0x3c9e4111	0.019318135
108	0x3ab905ad	0.0014116071
109	0x3aeb718a	0.0017962914
110	0xbd66ff96	-0.05639609
111	0x3d38a104	0.04507543
112	0x3c32b67d	0.010907766
113	0xbd3e20a5	-0.04641785
114	0xbc40dc5f	-0.011771291
115	0x3cbf8526	0.02337892
116	0x3c88e081	0.016708614
117	0x3d0f0b8d	0.034923125
118	0xbd0e76f9	-0.03478143
119	0xbcb8bc1c	-0.022550635
120	0xbc8d3cd3	-0.017240917
121	0xbb662dde	-0.0035122554
122	0xbc97f6f5	-0.018550375
123	0xbc60bfb3	-0.01371758
124	0x3c03b90c	0.008039724
125	0x3c9a2f10	0.01882127
126	0xbce99159	-0.02851169
127	0xbb21d2f5	-0.002469239
128	0xbcc22985	-0.023701439
129	0x3d97ab5b	0.0740573
130	0xbcd736e7	-0.026271297
131	0xbc4eb539	-0.012616449
132	0x3ba499b0	0.005023204
133	0xbd2263d1	-0.039645974
134	0xbc93a821	-0.018024506
135	0xbbb16574	-0.0054137055
136	0x39eb100f	0.00044834657
137	0xbd40d441	-0.04707742
138	0x3cc4b369	0.02401133
139	0x3d1bd68e	0.038046412
140	0xbcfe4399	-0.031038092
141	0xbc0e756f	-0.008694991
142	0x3cdf7946	0.027279507
143	0xbd1503e1	-0.036380652
144	0x3c3033f2	0.010754572
145	0x3aa10734	0.0012285472
146	0x3d42025e	0.04736554
147	0x3d3d8378	0.046267956
148	0xbb6b2fc8	-0.0035886634
149	0x3d0b5072	0.034012266
150	0xbd07bdb3	-0.033139896
151	0xbd63eded	-0.055646826
152	0x3c51efa0	0.012813479
153	0x3d18d2d7	0.037310448
154	0xbc77d7fc	-0.015127178
155	0x3bf90481	0.007599414
156	0x3cbb55a4	0.022867985
157	0x3d3c55bf	0.04598021
158	0xbd4e3aad	-0.050348926
159	0xbc9c2840	-0.019062161
160	0x3d104646	0.035223268
161	0xbc229fd2	-0.009925799
162	0xbd173eaf	-0.036925014
163	0xbd272805	-0.04080965
164	0x3c1fe74a	0.009759733
165	0xbd898606	-0.06715016
166	0x3d27ec1e	0.040996663
167	0x3ca37b92	0.019956384
168	0x3bad813a	0.005294946
169	0xbcb6d2fd	-0.022317404
170	0xbb5d4a87	-0.0033766346
171	0x3c4e2889	0.0125829065
172	0xbd143f6a	-0.03619329
173	0xbc282d42	-0.010264697
174	0xbd2eda9b	-0.042688947
175	0x3ca1a90c	0.019733928
176	0x3d4700b2	0.048584647
177	0x3c1367cf	0.008996918
178	0xbc5b070a	-0.013368377
179	0x3d248355	0.04016431
180	0xbd190778	-0.03736064
181	0xbd1c677d	-0.03818463
182	0xbd402e01	-0.046918873
183	0xbd8b790b	-0.068101965
184	0x3bd88bf5	0.006608481
185	0xbd21451e	-0.039372556
186	0x3c473cd9	0.012160503
187	0x3d14af37	0.03629991
188	0x3931afb5	0.00016945491
189	0xbc85a5a3	-0.016314333
190	0xbd11ec0b	-0.0356255
191	0xbcb28254	-0.02179066
192	0x3d1c708b	0.038193267
193	0x3d987e5c	0.07445976
194	0x3cc4205f	0.023941217
195	0x3d2d2358	0.042270035
196	0xbc860516	-0.016359847
197	0xbcc07bf4	-0.023496605
198	0xb94109bf	-0.00018409545
199	0x3caed869	0.021343427
200	0x3d4e6263	0.050386798
201	0x3bf38681	0.0074318056
202	0x3b61a44a	0.00344302
203	0xbcacee8a	-0.021109838
204	0x3ba551a6	0.0050451336
205	0x3d28cb44	0.041209474
206	0x3bcc1574	0.0062281433
207	0x3bf2538e	0.0073952144
208	0x3a20ff2c	0.0006141539
209	0xbcc2f2c7	-0.023797406
210	0xbc7867a7	-0.015161431
211	0xbcd44e62	-0.025916282
212	0xbc49605c	-0.01229104
213	0x3d8a69bb	0.06758448
214	0x3d1809ac	0.0371186
215	0x3d7ad94d	0.06124239
216	0xbc208dca	-0.00979943
217	0xba263c02	-0.00063413393
218	0x3d1a0c30	0.03760928
219	0xbd5f5e66	-0.054533385
220	0xbd5bbab2	-0.053644843
221	0xbc6cb3d9	-0.014447176
222	0x3cbe93c8	0.023263827
223	0xbc8c54f5	-0.017130354
224	0x3cab25fb	0.020892134
225	0x3cfdedcd	0.030997181
226	0x3c2526a2	0.010080012
227	0x3d62c7eb	0.055366438
228	0xbd7169dd	-0.05893885
229	0xbb856db6	-0.0040719165
230	0x3c20da6f	0.009817704
231	0xbcd7bc50	-0.026334912
232	0xbd3452f7	-0.044024434
233	0x3b6a01bf	0.0035706607
234	0x3afcc46c	0.0019284612
235	0x3d4ba995	0.049722273
236	0x3d377a35	0.04479428
237	0x3c9afdbd	0.01891982
238	0xbd2b7d7a	-0.04186771
239	0xbd1520bc	-0.03640817
240	0xbd05003a	-0.03247092
241	0x3b4a464c	0.0030864654
242	0x3bc06f58	0.005872648
243	0xbcd44791	-0.025913032
244	0x3d3def75	0.046370942
245	0xbc0d19bd	-0.0086120935
246	0xbc976935	-0.018482784
247	0x3b9d36e9	0.0047978056
248	0xbc7b317b	-0.015331621
249	0x3c8ac5d0	0.016940027
250	0x3c880675	0.016604641
251	0xbce3acb0	-0.027792305
252	0x3bc958ca	0.0061446177
253	0xbcd2eca6	-0.025747608
254	0xbc5c90b4	-0.013462234
255	0xbc357f22	-0.011077674

policy_net.2.weight f4 [128, 256]
0	0x3d492ea3	0.049116742
1	0xbd9f7105	-0.07785229
2	0xbadcda3a	-0.0016849705
3	0x3cf82f3d	0.030295962
4	0xbe1ed734	-0.15511781
5	0xbe4a243c	-0.19740385
6	0x3db6fd42	0.08935024
7	0xbe3a0a86	-0.18168077
8	0xbbdbc19f	-0.006706431
9	0xbde85286	-0.11343865
10	0xbe165b22	-0.14683202
11	0x3e41c815	0.18923981
12	0xbe2045c2	-0.1565161
13	0x3e183b28	0.14866316
14	0x3c5d87f7	0.013521186
15	0x3d5799bc	0.052636847
16	0xbe02005d	-0.12695451
17	0x3cfb44d7	0.030672474
18	0xbd4b819b	-0.04968415
19	0xbda66552	-0.08124794
20	0xbd708afc	-0.058726296
21	0x3d74ef07	0.059798267
22	0x3df56c75	0.11983577
23	0x3c30b654	0.010785658
24	0x3df2fae0	0.11864257
25	0xbd8b079f	-0.06788563
26	0xbdf13268	-0.11777192
27	0xbd63a51a	-0.055577375
28	0x3e226623	0.15859275
29	0xbb82e5bb	-0.003994671
30	0xbe3cb5a4	-0.18428665
31	0xbd033991	-0.03203732
32	0x3b9d0ffc	0.0047931653
33	0xbe04666d	-0.12929697
34	0xbcd4cf43	-0.025977736
35	0x3db5da90	0.08879578
36	0xbd635f31	-0.055510703
37	0x3db0efff	0.086395256
38	0x3e101a77	0.14072596
39	0x3d481add	0.048853744
40	0x3dc24e18	0.094875515
41	0x3d0f1ab8	0.03493759
42	0x3dae704f	0.08517515
43	0xbd08d53e	-0.03340649
44	0x3db29cf8	0.08721346
45	0x3db3f288	0.087864935
46	0xbd20bef8	-0.039244622
47	0xbd9d3165	-0.07675437
48	0x3caf7e1e	0.021422442
49	0xbc5bc0e6	-0.01341269
50	0x3d43979c	0.047752008
51	0xbd9edd6a	-0.07757075
52	0x3db2e00e	0.08734141
53	0x3c134866	0.008989429
54	0xbb0c5272	-0.0021411446
55	0xbd9b0abc	-0.07570407
56	0xbd5ce405	-0.053928394
57	0x3d2037e7	0.039115813
58	0x3e19e308	0.15028012
59	0xbe20749f	-0.15669487
60	0x3ccf5b70	0.025312155
61	0xbd2f8480	-0.04285097
62	0xbe108f60	-0.14117193
63	0x3dd5494b	0.1041437
64	0x3b0bb2b1	0.0021316225
65	0xbde5ce2a	-0.11220963
66	0x3e7ed7c4	0.24886996
67	0x3d51b394	0.05119665
68	0xbdd59f61	-0.1043079
69	0xbcb91bbb	-0.02259623
70	0x3d6e05da	0.05811105
71	0xbe3810f9	-0.17975225
72	0x3d4e6361	0.050387744
73	0xbcd037ec	-0.02541729
74	0xbc5bb85a	-0.013410652
75	0xbe200568	-0.15627062
76	0xbc461f5d	-0.0120924385
77	0x3e073759	0.13204707
78	0x3d7e1282	0.06202937
79	0xbe1b7bf4	-0.15184003
80	0x3c705668	0.014669038
81	0x3ded1398	0.11576003
82	0x3d41d8cf	0.047325905
83	0x3e25cb76	0.16190895
84	0x3e4d8328	0.20069563
85	0x3c594457	0.013260922
86	0x3d9f0ff8	0.07766718
87	0x3cae28b2	0.02125964
88	0xbcfce80c	-0.030872367
89	0xbe598bff	-0.2124481
90	0xbc808ed3	-0.015693104
91	0x3accb138	0.001561678
92	0x3d37018c	0.04467921
93	0xbd94650b	-0.07245835
94	0x3e0bc0a4	0.13647705
95	0x3c2e4bbf	0.010638176
96	0x3e0413a4	0.12898117
97	0xbc38ab58	-0.01127132
98	0xbddbaf1a	-0.10726757
99	0x3dbcaae4	0.09212282
100	0xbd8e27c5	-0.06941179
101	0x3c99af1d	0.018760258
102	0xbda76083	-0.08172705
103	0xbd70dcb1	-0.058804218
104	0xbd772dcf	-0.06034642
105	0x3db8cc0f	0.09023296
106	0xbdcaed28	-0.09908515
107	0xbd89f1e1	-0.06735588
108	0x3d438a18	0.04773912
109	0xbd2bcbfc	-0.04194258
110	0xbdad9dd2	-0.084773675
111	0xbc834d52	-0.01602808
112	0x3c69f2eb	0.014279108
113	0xbdb87b97	-0.09007948
114	0x3d70ad20	0.058758855
115	0xbd8821f8	-0.06647104
116	0x3dc6b989	0.09703357
117	0x3dd0f697	0.10203283
118	0x3db23553	0.08701577
119	0x3c00d582	0.007863404
120	0x3dfd92be	0.123815045
121	0xbc4e21d5	-0.012581308
122	0xbcab6bb5	-0.020925382
123	0x3c955bf0	0.018232316
124	0x3ac6b03d	0.0015158724
125	0x3c82f825	0.015987465
126	0xbd263f4a	-0.0405877
127	0x3d26274f	0.04056483
128	0xbe19937a	-0.14997664
129	0x3d0e00fa	0.0346689
130	0x3ccd12c6	0.025033366
131	0x3d81b167	0.06332665
132	0x3d97e639	0.07416958
133	0xbc5e2441	-0.013558448
134	0x3e121494	0.14265662
135	0xbdaa9bc5	-0.08330492
136	0x3df97999	0.12181396
137	0x3e00feef	0.1259725
138	0xbcb52037	-0.022110088
139	0x3d32d67b	0.043661576
140	0xbd2e6bf9	-0.04258344
141	0xbd241dc2	-0.04006744
142	0xbe628781	-0.22122003
143	0x3e19b3d7	0.1501001
144	0x3dd8e00a	0.10589607
145	0x3d20431b	0.039126497
146	0x3db2a228	0.08722335
147	0x3e02f5ba	0.1278905
148	0x3e1e5512	0.15462139
149	0xbddc2779	-0.10749716
150	0xbc0ca1f0	-0.008583531
151	0xbd4ec8c9	-0.050484452
152	0x3dce2b8e	0.10066901
153	0xbe09ff93	-0.134764
154	0x3cbe09ba	0.023197997
155	0x3c0ae130	0.00847654
156	0xbdd50f6a	-0.104033306
157	0x3cd641d8	0.026154444
158	0xbd1bd1ad	-0.03804176
159	0x3cd0d28b	0.02549102
160	0xbdc48b7e	-0.095969185
161	0xbcc66da6	-0.024222206
162	0x3b4112e1	0.0029460716
163	0x3c060216	0.008179208
164	0x3e727656	0.23677954
165	0x3dbcaea9	0.09213001
166	0xbd4c4f2c	-0.04988019
167	0x3dca4ca1	0.09877897
168	0x3d263cff	0.040585514
169	0xbc4e472a	-0.012590209
170	0x3e74b4dd	0.23897119
171	0xbd53beb9	-0.05169556
172	0xbd702146	-0.058625482
173	0x3c8f89a4	0.017521687
174	0xbccf36fc	-0.025294773
175	0x3de351ea	0.11099608
176	0xbbad8be6	-0.005296218
177	0x3d72c79a	0.059272386
178	0x3dd9e1f3	0.106387995
179	0xbd25be34	-0.040464595
180	0xbd8d1085	-0.068879165
181	0x3b37e4d4	0.0028059976
182	0x3c344e98	0.011005066
183	0xbdfc2b4b	-0.12312945
184	0x3d250448	0.040287286
185	0x3da9df52	0.08294548
186	0x3d8f75bf	0.0700488
187	0x3c803132	0.015648458
188	0x3bc84c4a	0.00611261
189	0xbdd636b0	-0.104596496
190	0x3d5d7d4c	0.05407457
191	0xbd098e62	-0.033583052
192	0xbd92c62b	-0.07166704
193	0x3b05f876	0.0020442284
194	0x3cdc4fff	0.026893614
195	0xbd51806c	-0.051147863
196	0x3de75a4a	0.11296518
197	0x3b0cd682	0.0021490161
198	0x3e5df1f6	0.21674332
199	0xbcc22135	-0.023697475
200	0xbd37fa4b	-0.044916432
201	0xbe2b1644	-0.16707712
202	0xbc8c2d14	-0.017111339
203	0xbdd292cb	-0.10281905
204	0xbe082fe7	-0.13299523
205	0x3d8dc9d0	0.06923258
206	0xbcef22d4	-0.029191412
207	0x3ca68ce5	0.020330856
208	0xbcbac450	-0.022798687
209	0xbdc06be3	-0.09395578
210	0x3c433c5b	0.011916245
211	0xbcc3b545	-0.023890147
212	0xbc76d3da	-0.015065158
213	0x3d09ad0f	0.033612307
214	0x3c8cd28f	0.017190246
215	0x3db2b7d5	0.087264694
216	0xbd3d80a5	-0.046265263
217	0xbdd83d8c	-0.10558614
218	0xbe201274	-0.1563204
219	0xbd07778f	-0.033073004
220	0x3e309944	0.17245966
221	0xbcc88dea	-0.024481732
222	0x3c85fd83	0.016356235
223	0xbc9f1178	-0.01941751
224	0x3d56a717	0.052405443
225	0x3ccd9667	0.025096131
226	0x3c4d553a	0.012532527
227	0x3c027b63	0.007963988
228	0x3dc3b4b9	0.095559545
229	0x3d8ed734	0.069746405
230	0xbd13d07a	-0.03608749
231	0xbe4b3c0a	-0.19847122
232	0xbd30d053	-0.043167423
233	0xbdcb734a	-0.09934099
234	0x3d1cc700	0.03827572
235	0xbcd5da43	-0.026105052
236	0x3e43db96	0.19126734
237	0x3ca19fa4	0.019729443
238	0x3cc0d4ae	0.023538914
239	0xbdc6139f	-0.09671711
240	0xbd1a9058	-0.037735313
241	0x3d1d18c3	0.038353693
242	0xbde64cd6	-0.11245124
243	0xbad96d29	-0.0016588318
244	0x3d3b7533	0.045766067
245	0xbda1f3ad	-0.079078056
246	0xbdad5336	-0.08463137
247	0xbd40d69f	-0.04707968
248	0xbdd7669a	-0.105176166
249	0xbd978654	-0.07398668
250	0xbcfa6913	-0.030567681
251	0x3df35001	0.11880494
252	0x3d708ddd	0.05872904
253	0x3ca0a79b	0.01961117
254	0xbd5884ba	-0.052860953
255	0x3e197007	0.14984141

policy_net.2.bias f4 [128]
0	0x3c853964	0.016262718
1	0x3d51662f	0.05112284
2	0x3d073aa3	0.033014905
3	0x3c07202a	0.008247415
4	0xbcfb8672	-0.030703757
5	0xbca8b461	-0.020593824
6	0xbcfda433	-0.030962085
7	0xbd43f1cd	-0.04783802
8	0x3ccc34b5	0.024927476
9	0x3d21ec79	0.03953216
10	0xbd5ee1b7	-0.054414477
11	0xbd40c274	-0.047060445
12	0xbcac2d49	-0.021017687
13	0x3c8e862f	0.017397968
14	0xbcd2f775	-0.025752762
15	0x3c6b6148	0.014366455
16	0xbb8e5ed3	-0.0043448
17	0x3ce665a4	0.028124638
18	0x3c2a40d7	0.010391436
19	0x3d4b5cec	0.049649164
20	0xbac7871b	-0.001522276
21	0x3db2729e	0.08713268
22	0x3bc20d98	0.0059220307
23	0x3af8173c	0.0018927823
24	0xbc15f2e9	-0.009152153
25	0xbb8bc679	-0.004265603
26	0xbca29609	-0.019846933
27	0x3b9d5d31	0.004802369
28	0x3d102db1	0.035199825
29	0x3d0d5694	0.034506395
30	0x3b6eb6cc	0.0036424873
31	0x3d61d4cf	0.05513459
32	0x3c9fe9c2	0.019520644
33	0x3b6bc3a5	0.0035974768
34	0xbc846928	-0.016163424
35	0xba8d168b	-0.0010764165
36	0x3b4b7fd2	0.0031051529
37	0xbc0515cd	-0.0081228735
38	0x3d1db1e1	0.038499717
39	0xbd018a54	-0.03162606
40	0xbd20bef9	-0.039244626
41	0xbc5a8c49	-0.013339111
42	0x3cfcf5b5	0.030878881
43	0x3b4a46ea	0.0030865022
44	0xbc56f20e	-0.013119234
45	0xbd0e4bd8	-0.0347403
46	0xbd9b1184	-0.075717
47	0x39cef91b	0.0003947698
48	0x3d111ed0	0.035429776
49	0x3d437133	0.047715377
50	0xbca9af00	-0.02071333
51	0xbb82e3a9	-0.0039944244
52	0x3b495b3f	0.0030724553
53	0xbad65446	-0.001635202
54	0xbcbfa28a	-0.023392934
55	0xbd15dc0b	-0.036586802
56	0xbd409368	-0.047015578
57	0x3c9cff63	0.019164747
58	0xbcd8935f	-0.02643746
59	0x3c366949	0.0111335
60	0x3c973612	0.0184584
61	0xbc6ca6ba	-0.014444048
62	0x3a53bc8b	0.00080771063
63	0xbc404b2b	-0.011736671
64	0x3cf3756d	0.029719079
65	0xbd8ff208	-0.07028586
66	0xbc809a3f	-0.01569855
67	0xbc339261	-0.010960192
68	0xbc202e26	-0.009776628
69	0x3d0486de	0.032355182
70	0xbd04e743	-0.03244711
71	0x3d0abd88	0.033872157
72	0xbd25fbc4	-0.040523306
73	0xbd05c3ed	-0.032657553
74	0xbd8c2b1b	-0.06844159
75	0xbbe84956	-0.0070888205
76	0x3bafb3db	0.0053620166
77	0x3d7f3586	0.062306903
78	0x3c892e97	0.016745849
79	0x3d3ae7bf	0.045631167
80	0x3aaadfcd	0.0013036669
81	0xba881a3d	-0.0010383796
82	0xbc254cea	-0.0100891385
83	0x3c7730b9	0.0150873
84	0xbb9d7f0d	-0.0048064054
85	0x3993197b	0.0002805701
86	0xbcc37710	-0.023860484
87	0xbd491571	-0.049092714
88	0x3cfe15b1	0.031016203
89	0xbba3d0f7	-0.004999276
90	0xbc9f70bd	-0.019462937
91	0x3bf8c30e	0.0075916117
92	0x3d503430	0.05083102
93	0xbca76264	-0.020432658
94	0xbc394677	-0.011308304
95	0xbd60fdb3	-0.054929446
96	0x3aaa341c	0.00129855
97	0x3c985410	0.018594772
98	0xbc54634d	-0.012963128
99	0xbdd64496	-0.104623005
100	0xbbfefe16	-0.0077817542
101	0x3c71a807	0.0147495335
102	0xbb1b88e3	-0.0023732714
103	0x3d876e10	0.0661279
104	0x3d0a488e	0.0337606
105	0xbd43b5a9	-0.047780667
106	0xbd7eaf30	-0.06217879
107	0xbd0025a0	-0.031285882
108	0x3b815039	0.003946331
109	0xbbf08619	-0.0073402044
110	0xbc95aa7a	-0.018269766
111	0x3c56f405	0.013119702
112	0x3c97eeea	0.01854654
113	0xbc893049	-0.016746657
114	0xbd5ef79d	-0.05443536
115	0xbb19fcdd	-0.0023496666
116	0xbd505865	-0.05086555
117	0x3c85a80b	0.01631548
118	0x3bacd599	0.0052744863
119	0xbcab1f4c	-0.020888947
120	0x3c58ccf4	0.013232458
121	0x3baf6a07	0.0053532156
122	0xbc136722	-0.008996757
123	0x3adcbbc4	0.0016840626
124	0x3cdaecd4	0.026724257
125	0x3d81884d	0.063248254
126	0xbbda8668	-0.0066688545
127	0xbc5c4b1b	-0.013445641

action_net.weight f4 [5, 128]
0	0x3c1dd7ed	0.009634
1	0xbdd3629e	-0.10321544
2	0x3d00020c	0.031251952
3	0x3c465b1b	0.012106682
4	0x3caab3b2	0.020837639
5	0xbc56016e	-0.013061864
6	0x3d90c79e	0.07069324
7	0x3dbc435f	0.091925375
8	0xbc784aa4	-0.015154514
9	0x3cd176bf	0.025569318
10	0xbc64fc23	-0.01397613
11	0x3b5d7730	0.0033792965
12	0xbb7a5232	-0.0038195965
13	0xbd9c5af9	-0.07634539
14	0xbc0fdac8	-0.008780189
15	0x3d027295	0.031847555
16	0xbd2d7bad	-0.042354275
17	0xbda362af	-0.07977807
18	0x3d23d6a5	0.039999623
19	0x3d9f0a23	0.07765605
20	0xbd610dc1	-0.054944757
21	0xbd95d399	-0.0731575
22	0xbd7c6f8d	-0.06162982
23	0xbccbde3f	-0.024886249
24	0x3dfca1d7	0.12335556
25	0x3b6afa60	0.0035854802
26	0x3d6bcf7e	0.057570927
27	0x3d3a04c0	0.045414686
28	0xbd9fe6dc	-0.07807705
29	0x3c195c71	0.009360419
30	0x3c199376	0.009373536
31	0xbe33012e	-0.17480919
32	0xbd6c5182	-0.05769492
33	0x3d5529f6	0.05204197
34	0x3d2c7c36	0.042110644
35	0xbbc0b624	-0.005881088
36	0x3d0f305d	0.034958232
37	0x3d4be1ba	0.049775817
38	0xbdb18253	-0.086674355
39	0x3cdcd1a6	0.026955437
40	0xbcd45575	-0.025919655
41	0x3c1cd889	0.00957311
42	0x3cb0c100	0.021576405
43	0xbd683c09	-0.05669788
44	0x3cf91538	0.030405626
45	0x3dc11131	0.09427107
46	0x3e0350b2	0.12823752
47	0x3caca386	0.021074068
48	0x3b787dc3	0.0037916757
49	0xbcd077a0	-0.025447667
50	0x3ce6c5bf	0.028170465
51	0xbdfac605	-0.122448005
52	0xbd2b0d27	-0.04176059
53	0xbc27fd8b	-0.01025332
54	0xbc61723c	-0.013760146
55	0xbc88daab	-0.016705832
56	0x3c43bef8	0.011947386
57	0xbdd43b6c	-0.10362896
58	0xbd49ec1f	-0.04929745
59	0xbd854866	-0.065079495
60	0xbad9714c	-0.0016589551
61	0x3d898e99	0.067166515
62	0x3c0edfe5	0.008720373
63	0xbcdc1a3b	-0.026867976
64	0xbcb6f73f	-0.022334693
65	0xbb8c4906	-0.004281166
66	0x3cf1f1fd	0.029534334
67	0x3d76a234	0.060213283
68	0x3cb83fde	0.022491392
69	0xbcf18cc0	-0.02948606
70	0x3d9e83d0	0.07739985
71	0x3c016579	0.007897728
72	0xbdb203a5	-0.086921014
73	0xbc651dc8	-0.013984151
74	0x3b2a998a	0.0026031458
75	0xbd077171	-0.03306717
76	0x3d17b6b9	0.037039492
77	0xbda00c92	-0.078148976
78	0xbc145a60	-0.00905475
79	0xbc2c267c	-0.010507222
80	0x3c4a703f	0.012355863
81	0x3c5b405a	0.013382042
82	0x3d158d56	0.03651174
83	0x3cc5aa87	0.024129165
84	0x3c11e983	0.008905771
85	0xbc760231	-0.015015171
86	0xbcc00fb1	-0.023444982
87	0xbc05789d	-0.008146432
88	0x3dbc0201	0.0918007
89	0x3d0089e8	0.031381518
90	0xbbe47b90	-0.0069727376
91	0xbcc2c333	-0.023774719
92	0x3d863695	0.065533794
93	0x3dbbdcb4	0.09172955
94	0xbcd46607	-0.025927557
95	0xbde001db	-0.10937854
96	0xbcd90f66	-0.0264966
97	0x3cba7ee7	0.02276559
98	0x3b56904a	0.0032739812
99	0x3e6e369e	0.23263022
100	0xbcd42bf6	-0.025899868
101	0x3d2ea68f	0.04263931
102	0xbb3f0930	-0.0029149763
103	0x3d5e2ff2	0.054244943
104	0xbc676f17	-0.014125607
105	0xbd07301f	-0.033004876
106	0xbbfa92ef	-0.0076469104
107	0x3c9e75e5	0.019343326
108	0x3afe6f52	0.0019411838
109	0x3e3e7357	0.18598686
110	0xbdbf08ad	-0.09327827
111	0x3c98b38f	0.018640308
112	0x3cffa3b2	0.031205986
113	0x3df0356d	0.1172894
114	0xbcac5493	-0.021036422
115	0xbcb005ef	-0.021487204
116	0x3d46c725	0.048529763
117	0xbd31a149	-0.043366704
118	0x3d54139e	0.05177652
119	0x3b9617fe	0.004580497
120	0x3bb47020	0.0055065304
121	0x3c8cd579	0.017191635
122	0xbd9161b3	-0.07098713
123	0xbc296d6c	-0.01034103
124	0xbcd73d9e	-0.026274499
125	0x3e2c4043	0.16821389
126	0xbc86f1f7	-0.0164728
127	0x3d16e727	0.036841538
128	0x3dd33c3e	0.10314225
129	0xbe9b0901	-0.30280307
130	0x3d8c2455	0.06842867
131	0x3d6f6f45	0.058455724
132	0x3d90cf7f	0.07070827
133	0x3d91bd0a	0.071161345
134	0xbc333096	-0.010936877
135	0xbaec7cc4	-0.0018042554
136	0xbb53bb66	-0.0032307743
137	0x3e9508bd	0.2910823
138	0xbcf54371	-0.029939385
139	0xbdf71ad8	-0.12065667
140	0xbdca4e1f	-0.09878182
141	0xbdb88f96	-0.09011762
142	0x3d289c10	0.041164458
143	0x3d323682	0.043509014
144	0x3b8a7664	0.004225539
145	0xbe50fc96	-0.20408854
146	0xbe507491	-0.20356967
147	0xbea7d805	-0.32781997
148	0x3db0b6b1	0.086285956
149	0x3d5b418c	0.053529307
150	0x3d5b9964	0.05361308
151	0x3d1ff139	0.039048407
152	0x3c8bb3ca	0.017053504
153	0x3c862765	0.016376207
154	0xbc760634	-0.015016127
155	0xbcb0c85d	-0.021579916
156	0x3e4223d1	0.18958975
157	0xbd3b2092	-0.04568536
158	0xbd8f2749	-0.06989915
159	0x3e7f5516	0.24934801
160	0xbc239e10	-0.0099864155
161	0xbdc57284	-0.09640983
162	0x3c971bb2	0.018445823
163	0x3db5d734	0.08878937
164	0xbdb2e30c	-0.08734712
165	0x3c006173	0.007835734
166	0xbda2a4c4	-0.07941583
167	0xbc07e218	-0.008293651
168	0x3df35dc9	0.118831225
169	0x3e052076	0.13000664
170	0x3d6fed6b	0.05857603
171	0x3cbf7eea	0.023375947
172	0xbd2ca2ae	-0.04214733
173	0xb9c99b6f	-0.00038453515
174	0x3e649ef5	0.22326262
175	0xbd49760a	-0.049184836
176	0x3e1f6d94	0.15569144
177	0x3c96d3a2	0.018411461
178	0x3d3b5bbb	0.045741778
179	0xbda7c433	-0.08191719
180	0x3d897552	0.0671183
181	0xbce80abb	-0.02832543
182	0x3d8856d0	0.06657183
183	0x3d4a2537	0.049351897
184	0x3db66992	0.08906855
185	0xbd6d5af3	-0.057948064
186	0xbe075046	-0.13214216
187	0x3d1374c1	0.036000017
188	0xbd132682	-0.035925396
189	0xbe01db1d	-0.12681241
190	0x3dd58a3e	0.10426758
191	0xbd6514af	-0.05592793
192	0x3e0a81f8	0.13526142
193	0xbd71ea7d	-0.059061516
194	0xbd7b8dca	-0.061414517
195	0x3bee11ad	0.0072652907
196	0x3d2a91a6	0.041642807
197	0x3d4637a4	0.048392907
198	0x3c2420d7	0.010017595
199	0xbe0ca19e	-0.13733527
200	0xbe17a98e	-0.14810774
201	0xbde58e1d	-0.112087466
202	0x3e6adaab	0.22934978
203	0x3ce4a869	0.027912335
204	0xbe1c9072	-0.15289477
205	0x3dba6827	0.09101897
206	0x3d3bcf7d	0.045852173
207	0x3c904ace	0.017613795
208	0x3dae0efb	0.08498951
209	0xbbe36295	-0.006939242
210	0xbd864503	-0.06556132
211	0x3d417d94	0.0472389
212	0x3dababe8	0.08382398
213	0x3c73dbef	0.014883979
214	0xbdc2285b	-0.094803534
215	0xbd8b783d	-0.06810043
216	0xbd2ef638	-0.04271528
217	0x3d31f9f2	0.043451257
218	0x3e019f9f	0.12658547
219	0xbddf7be0	-0.10912299
220	0xbead7503	-0.33878335
221	0xbdd6e37f	-0.1049261
222	0x3db98d99	0.09060211
223	0x3d9b8e3e	0.0759549
224	0xbc465b54	-0.012106735
225	0x3da193df	0.07889532
226	0xbe6e6254	-0.23279697
227	0xbd96dde9	-0.07366545
228	0xbda53f14	-0.08068672
229	0xbaf27504	-0.0018498008
230	0x3dafb6cb	0.08579787
231	0xbec38768	-0.38189244
232	0xbd7ccb6f	-0.061717447
233	0xbc20710f	-0.00979258
234	0xbd9f58fb	-0.077806436
235	0xbd91a139	-0.07110829
236	0xbd32def9	-0.043669675
237	0x3dc9b254	0.098484665
238	0x3d211f44	0.039336458
239	0x3df736aa	0.12070973
240	0x3ea27f54	0.3173777
241	0xbd7ec423	-0.06219877
242	0xbc54bd1e	-0.012984542
243	0xbb9ae60a	-0.00472713
244	0xbcfeafd7	-0.031089706
245	0xbe0305a7	-0.12795125
246	0x3c612521	0.013741762
247	0x3da4588d	0.08024702
248	0xbcb235c0	-0.021754146
249	0x3d06b589	0.03288797
250	0x3d8d1365	0.06888465
251	0xbd93e1a2	-0.072207704
252	0x3d20d2c9	0.03926352
253	0x3e71bb83	0.23606686
254	0x3d9562fe	0.07294272
255	0x3d95e8f9	0.07319827

action_net.bias f4 [5]
0	0xbccef9b9	-0.025265561
1	0xbae2d655	-0.0017306308
2	0xbda06c6f	-0.07833182
3	0x3dc759c1	0.09733916
4	0x3bf03ea1	0.0073316847
