submissions/aguerouani/predator_model.pth (torch, 25321 bytes, 6 tensors)

policy_net.0.weight f4 [64, 16]
0	0xbf37307e	-0.7155837
1	0x3e94e8c4	0.29083836
2	0xbea2756d	-0.31730214
3	0xbe2b6e6a	-0.16741338
4	0x3db7e467	0.08979111
5	0x3dfa6481	0.12226201
6	0xbdeedb14	-0.116628796
7	0xbe11e11d	-0.1424603
8	0x3c3b5d36	0.011435797
9	0xbd42aa9e	-0.047525994
10	0x3d0f2799	0.034949873
11	0xbe28f58f	-0.16499923
12	0xbf09e86e	-0.53870285
13	0x3e1b2ba7	0.15153371
14	0x3f502f91	0.8132258
15	0xbe177062	-0.14788964
16	0xbe3452f3	-0.17609768
17	0xbf3e8390	-0.744195
18	0xbe6521de	-0.223762
19	0xbe9e3929	-0.30902985
20	0x3bb6d2b2	0.005579316
21	0xbe57f17e	-0.21088216
22	0x3da89548	0.08231598
23	0x3d688f17	0.056777086
24	0x3e146a8c	0.1449377
25	0xbe854faa	-0.2603734
26	0x3c937d6a	0.018004138
27	0xbe1a6244	-0.15076548
28	0xbd580431	-0.052738372
29	0xbc5e8d9a	-0.013583565
30	0xbf24b873	-0.6434395
31	0xbe458639	-0.19289483
32	0xbdd95ffc	-0.10614011
33	0x3e056723	0.13027625
34	0x3d4c495c	0.04987465
35	0xbdfa5407	-0.12223058
36	0x3d5f3082	0.05448962
37	0xbd0dc306	-0.034609817
38	0x3db409a4	0.08790901
39	0xbe549789	-0.20760931
40	0xbef855c5	-0.48502937
41	0xbdb027a1	-0.086013086
42	0xba6b2588	-0.0008970131
43	0x3d3a420e	0.04547315
44	0xbecc18b9	-0.39862612
45	0xbed3e80e	-0.4138798
46	0xbe090e82	-0.1338444
47	0x3ec790de	0.38977712
48	0x3ed39d41	0.41330913
49	0xbedbe420	-0.42947483
50	0x3ed93cf3	0.42429313
51	0xbe60e6a6	-0.21962985
52	0xbd8dc4b1	-0.069222815
53	0xbe7663a1	-0.24061443
54	0xbe9e1db3	-0.30882034
55	0xbceeed82	-0.029165987
56	0x3c5ce44e	0.013482166
57	0xbe9247bc	-0.28570354
58	0xbd8f5e20	-0.07000375
59	0xbdaa9f8a	-0.08331211
60	0x3ea812a0	0.3282671
61	0x3de9b1f7	0.11410897
62	0xbeb91738	-0.36150527
63	0xbb4b0a97	-0.0030981654
64	0xbd2dff80	-0.042479992
65	0xbe01e9ce	-0.12686846
66	0xbbf094f4	-0.0073419753
67	0xbd82a439	-0.06378979
68	0xbe2bea18	-0.16788518
69	0x3c8e3b15	0.017362157
70	0xbe2069b1	-0.15665318
71	0xbda939d5	-0.08262984
72	0xbe5c846b	-0.21534888
73	0x3c8933cf	0.016748337
74	0x3e74203d	0.23840423
75	0xbc8d1e34	-0.017226316
76	0xbe6c096b	-0.23050468
77	0x3e37a5b1	0.179343
78	0x3dbecf49	0.0931688
79	0x3e255f17	0.16149555
80	0xbe9fc509	-0.31205013
81	0x3da505fa	0.080577806
82	0xbed4e8ce	-0.41583866
83	0xbdeb3c46	-0.114861056
84	0xbe0c7034	-0.13714677
85	0xbe59dd6b	-0.2127587
86	0x3dc07153	0.09396615
87	0xbc22cd1c	-0.009936597
88	0x3e66379e	0.22482154
89	0x3d92f4a4	0.07175568
90	0xbe38e0f8	-0.18054569
91	0x3e87a582	0.2649346
92	0xbcd11d65	-0.025526712
93	0x3e81aa7d	0.25325385
94	0xbf63cf8e	-0.8898858
95	0x3f2e2f05	0.68040496
96	0xbe9c8493	-0.30569896
97	0x3ee57e6e	0.4482302
98	0x3e607b10	0.21921945
99	0x3e71f253	0.23627596
100	0x3e1aeec2	0.15130141
101	0x3d806b78	0.06270498
102	0x3e4d868f	0.20070861
103	0xbde9abe7	-0.11409741
104	0x3cf4c063	0.029876893
105	0xbde86e82	-0.11349203
106	0xbcf20bb4	-0.029546596
107	0x3e69e9dc	0.22843117
108	0xbf3efe30	-0.7460661
109	0xbe4b6f82	-0.19866756
110	0xbe401356	-0.18757376
111	0x3e4073d1	0.1879418
112	0xbe1b6568	-0.15175402
113	0x3ebf88f5	0.37409177
114	0x3d85cc19	0.06533069
115	0x3e899592	0.26871926
116	0x3cac9329	0.021066265
117	0x3c562339	0.013069921
118	0xbe1d5986	-0.15366182
119	0x3c9bd798	0.019023702
120	0x3daecfd0	0.08535731
121	0xbddf72f7	-0.109106
122	0xbe2548d0	-0.16141057
123	0x3dd0dbea	0.10198195
124	0xbeccedee	-0.40025276
125	0x3eab2174	0.3342396
126	0xbfc3ba49	-1.5291225
127	0x3e9af475	0.3026463
128	0xbe84f4fd	-0.2596816
129	0x3ee1aa6e	0.4407534
130	0x3e2823c8	0.164199
131	0x3d762a9c	0.06009923
132	0xbf02b7c5	-0.5106166
133	0xbd28838f	-0.04114109
134	0xbdc5145c	-0.09623024
135	0xbdb73ded	-0.08947358
136	0xbbb3831d	-0.0054782764
137	0xbe7c0ff8	-0.24615467
138	0x3e4b225d	0.19837327
139	0xbe7d6712	-0.2474635
140	0x3d75213f	0.05984616
141	0x3e0df730	0.13863826
142	0xbe8392c9	-0.25697926
143	0x3f5a68c7	0.8531613
144	0x3e7cca36	0.24686512
145	0x3e99e013	0.30053768
146	0x3e90d366	0.28286284
147	0x3e39b1fc	0.18134302
148	0x3dbcf644	0.09226659
149	0x3caecf26	0.02133901
150	0xbe1b1fe7	-0.15148889
151	0x3db28b2f	0.087179534
152	0x3dcfb586	0.10142045
153	0x3e57c141	0.21069814
154	0xbe7d9a63	-0.24765925
155	0xbe9dbc8d	-0.30807915
156	0xbf6fc51a	-0.9366013
157	0xbf24c21b	-0.6435868
158	0xbe98ea3c	-0.29866207
159	0xbe33f8e7	-0.17575417
160	0x3d4c889a	0.04993496
161	0xbeb36b1a	-0.3504265
162	0x3dbb335b	0.09140655
163	0xbe895e8c	-0.26829946
164	0x3d72eb4f	0.05930644
165	0xbd830c92	-0.06398882
166	0x3dcca0b8	0.09991592
167	0x3d3f7182	0.04673911
168	0xbea6085d	-0.32428256
169	0x3d3be14f	0.045869168
170	0xbc9af50c	-0.018915676
171	0x3daccef7	0.08437913
172	0xbf1efc74	-0.6210396
173	0x3f60b61f	0.87777895
174	0xbdcd6684	-0.10029319
175	0x3e959dba	0.29221898
176	0x3ee24ca4	0.44199097
177	0xbd3dc008	-0.046325713
178	0xbebc3252	-0.3675714
179	0xbd5a23b9	-0.053256724
180	0xbea0b6b6	-0.31389397
181	0x3e510e2a	0.2041556
182	0x3d39f579	0.045400117
183	0xbcabd638	-0.02097617
184	0xbed14d20	-0.40879154
185	0xbe556051	-0.20837523
186	0xbdbd42ef	-0.09241282
187	0x3df8e24d	0.121525384
188	0x3e6682c7	0.22510825
189	0x3e0ec535	0.13942416
190	0x3e7c411f	0.24634217
191	0x3e8b079f	0.27154252
192	0x3e023688	0.12716115
193	0x3e529128	0.20563185
194	0x3cfbf7be	0.030757781
195	0x3e2a7482	0.16646007
196	0xbe28f360	-0.1649909
197	0x3dcd0ee4	0.10012606
198	0xbe3033bd	-0.17207237
199	0x3e2366bd	0.1595716
200	0x3e4966af	0.19668077
201	0x3e3aad1f	0.18230103
202	0xbda637bc	-0.08116099
203	0xbe91ddc0	-0.28489494
204	0xbda13c57	-0.07872837
205	0xbd365ed3	-0.044524025
206	0x3ef70101	0.48242953
207	0xbef3c934	-0.47614443
208	0x3e769b2c	0.24082631
209	0xbd067039	-0.032821868
210	0xbe7345a1	-0.2375703
211	0xbbbe41f7	-0.0058062035
212	0x3c6b2d69	0.014354088
213	0x3dd8fa37	0.105946
214	0xbd9f5242	-0.07779361
215	0xbe5a6c34	-0.21330339
216	0xbedaba71	-0.42720369
217	0x3eed7ed6	0.4638583
218	0xbc5a2806	-0.013315206
219	0x3c22b3f1	0.009930597
220	0xbd5aa132	-0.053376384
221	0x3ee83ec7	0.45360395
222	0xbe322ab4	-0.17399102
223	0x3e21c5d2	0.15798119
224	0x3de4e44d	0.111763574
225	0x3d9d6a56	0.076862976
226	0x3dc98cbf	0.09841298
227	0x3cdf9512	0.027292762
228	0x3d155b48	0.036464006
229	0x3e4f139b	0.20222323
230	0x3dc85c27	0.09783202
231	0x3d86700c	0.0656434
232	0x3e129820	0.14315844
233	0xbc9b9496	-0.01899175
234	0xbdf2fdec	-0.11864838
235	0x3d6bc940	0.057564974
236	0xbefd4396	-0.49465626
237	0x3f98f810	1.1950703
238	0x3d4c4214	0.049867705
239	0x3eb69f9f	0.35668656
240	0xbec34e1f	-0.3814554
241	0xbe8bd07b	-0.27307495
242	0x3d2dabe0	0.04240024
243	0x3d9f49cc	0.077777475
244	0x3e85a0ed	0.2609934
245	0x3edde7b0	0.43340826
246	0xbe84bc7b	-0.2592505
247	0x3dc54010	0.096313596
248	0x3e6eb727	0.23312055
249	0x3e0a8080	0.13525581
250	0x3e149822	0.14511159
251	0x3e051e5a	0.1299986
252	0xbc917359	-0.017755197
253	0x3ea77e8c	0.32713735
254	0xbda75fa1	-0.08172537
255	0xbd9f9efb	-0.07793995

policy_net.0.bias f4 [64]
0	0xbc41e1d6	-0.011833629
1	0x3d4fed15	0.05076321
2	0xbd4e5890	-0.05037743
3	0x3d8773c6	0.06613879
4	0x3d3e7e36	0.046507083
5	0x3cb311be	0.021859046
6	0xbd1e4df2	-0.038648553
7	0xbd7617b4	-0.0600812
8	0xbd2c9475	-0.042133767
9	0x3dc4651c	0.095895976
10	0x3d805ad9	0.06267328
11	0x3cb3596f	0.021893231
12	0xbd9b0abc	-0.07570407
13	0x3e130389	0.14356817
14	0x3a25af49	0.000632037
15	0x3c8ff2f2	0.0175719
16	0xba52f1b1	-0.0008046879
17	0xbcbaaf9f	-0.02278882
18	0xbd0c25f7	-0.034215894
19	0x3da7491d	0.08168242
20	0x3c6396a9	0.013890901
21	0x3d1dfd52	0.038571663
22	0x3d81fdaf	0.063472144
23	0x3d479c18	0.048732847
24	0xbe0693b5	-0.13142283
25	0x3e181b39	0.14854135
26	0x3ce6d4ac	0.028177582
27	0xbd341998	-0.04396972
28	0xbda307b6	-0.07960455
29	0xbcc1f2db	-0.023675373
30	0xbd229b82	-0.039699085
31	0x3e2a7974	0.16647893
32	0xbcf7ab00	-0.030232906
33	0x3d21b748	0.03948143
34	0x3d7d5237	0.061845984
35	0x3df7ca4f	0.12099134
36	0x3d8ad665	0.06779174
37	0x3e0d45fa	0.13796225
38	0x3dbaa505	0.09113506
39	0x3da0dc82	0.078545585
40	0xbd0a9cb0	-0.033840835
41	0x3da72450	0.08161223
42	0x3d9da933	0.07698288
43	0xbd28facc	-0.041254804
44	0xbba78954	-0.0051128063
45	0xbc43562a	-0.011922399
46	0xbcb1c416	-0.021699946
47	0x3d8baecf	0.068204515
48	0xbcbdf080	-0.023185968
49	0x3da0322f	0.07822072
50	0x3c8dba4a	0.017300744
51	0xbe251b61	-0.16123725
52	0xbc7e1dec	-0.015510064
53	0x3de19a10	0.11015713
54	0xbd0bb4ae	-0.034107856
55	0xbd399ad3	-0.045313668
56	0xbd1d1ae5	-0.038355727
57	0xbae20631	-0.0017244277
58	0xbb88eeab	-0.004178842
59	0x3cdf8219	0.027283715
60	0xbd006ae1	-0.031351928
61	0x3c859dc1	0.016310574
62	0xbd9b0042	-0.075684085
63	0x3d49156b	0.04909269

policy_net.2.weight f4 [64, 64]
0	0x3dc816df	0.09769987
1	0x3d8ff2fb	0.07028767
2	0xbed671f7	-0.41883823
3	0x3e7c2962	0.24625161
4	0xbdd47530	-0.10373914
5	0x3e439ca5	0.19102724
6	0xbf40d47a	-0.75324214
7	0xbe04d6dc	-0.12972587
8	0xbdc3063b	-0.09522673
9	0xbf3a09e3	-0.72671336
10	0x3e8475c2	0.25871092
11	0x3e8468ee	0.25861305
12	0xbe18e3d9	-0.14930667
13	0x3e85d0e0	0.2613592
14	0x3ee1c01f	0.4409189
15	0x3ea36c40	0.31918526
16	0x3edd244a	0.4319175
17	0x3e3f4326	0.18677959
18	0x3e09f927	0.1347395
19	0x3e892daf	0.26792666
20	0xbeea8e8c	-0.4581188
21	0x3d358107	0.044312503
22	0xbeb2f9d1	-0.3495622
23	0xbe939b35	-0.2882935
24	0xbe6db7fa	-0.23214713
25	0x3cda0d60	0.026617706
26	0xbe9c41b6	-0.30518883
27	0x3efa290f	0.4885945
28	0xbd9ffdab	-0.07812055
29	0xbe794e17	-0.24346195
30	0x3f27d8fa	0.65565455
31	0xbe8e4b3a	-0.27791768
32	0x3e6c295c	0.23062652
33	0x3eaa1494	0.33218825
34	0xbd5c8550	-0.053838074
35	0xbe43cfc5	-0.19122227
36	0xbecf3c51	-0.40475705
37	0xbe94b761	-0.29046157
38	0xbdda1312	-0.106481686
39	0x3f1f0ecd	0.6213196
40	0x3eb35de5	0.35032573
41	0xbd4752a2	-0.04866279
42	0x3ec5ceaa	0.38634235
43	0xbe3ad54a	-0.18245426
44	0xbc5859e8	-0.013205029
45	0x3d76c9c9	0.06025103
46	0x3e9468b5	0.28986135
47	0x3c9dadb4	0.019247867
48	0xbee4d168	-0.44691014
49	0xbea41f47	-0.32055113
50	0xbec656dc	-0.38738143
51	0xbee2fa62	-0.44331652
52	0x3e8f2dd9	0.27964666
53	0x3eb81076	0.3595006
54	0xbe8049db	-0.25056347
55	0x3eb60121	0.35547736
56	0xbe9c3a6f	-0.3051333
57	0x3f321ba0	0.695734
58	0xbea6d87f	-0.32587048
59	0x3bb8fed7	0.0056456137
60	0xbea1cfbc	-0.316038
61	0xbef9db05	-0.4879991
62	0xbeb57140	-0.35437965
63	0x3e763f16	0.24047503
64	0x3eb7667d	0.3582038
65	0xbf060793	-0.5235531
66	0xbead1368	-0.33803868
67	0xbe69009c	-0.22754139
68	0xbe93610a	-0.28784972
69	0xbf7c2813	-0.9849865
70	0x3d9d969f	0.07694744
71	0xbf4ea5cc	-0.80721736
72	0xbe9aca2e	-0.30232376
73	0x3e32f19f	0.17474984
74	0xbef4d5e9	-0.4781945
75	0x3d7ad889	0.06124166
76	0x3f2cdb24	0.6752188
77	0xbdf3a39b	-0.1189644
78	0xbde2810c	-0.1105977
79	0xbd447cef	-0.04797071
80	0xbe87025f	-0.26368997
81	0x3e08c926	0.13357982
82	0x3dab5d1f	0.08367371
83	0xbe5ea41a	-0.21742287
84	0x3edfa4e0	0.43680477
85	0xbf22ffc8	-0.6367154
86	0x3e4b08e3	0.19827609
87	0xbea33e1e	-0.3188333
88	0x3e6584cf	0.22413944
89	0x3e7edec6	0.24889669
90	0x3e598ac1	0.21244337
91	0xbf2b8f0d	-0.67015153
92	0x3be09b51	0.0068544527
93	0xbcc10461	-0.023561658
94	0x3d569516	0.052388273
95	0xbd235827	-0.03987899
96	0x3e4f15e7	0.20223199
97	0xbe4a7cb5	-0.19774134
98	0xbee8b805	-0.45452896
99	0x3e6a407e	0.22876164
100	0xbedc3980	-0.4301262
101	0x3e6789fc	0.2261123
102	0xbe615d71	-0.22008301
103	0xbe8d0662	-0.27543932
104	0x3da205e1	0.079112776
105	0x3e9a3af4	0.30123103
106	0xbae4e784	-0.0017464017
107	0x3d5744e3	0.05255593
108	0x3ebdb6ea	0.37053615
109	0x3e91bd5d	0.28464785
110	0xbdb1f343	-0.086889766
111	0xbeaf1ef7	-0.34203312
112	0xbdbda859	-0.092606254
113	0x3e0a4b2c	0.13505238
114	0x3e34c4c9	0.17653193
115	0xbda8400b	-0.0821534
116	0x3c85304a	0.016258378
117	0xbdd71033	-0.10501137
118	0x3dcd2a4c	0.10017833
119	0xbe193df8	-0.14965045
120	0xbda0c7bc	-0.07850596
121	0xbc77f923	-0.015135082
122	0x3ce54326	0.02798612
123	0xbddcac66	-0.1077507
124	0x3b309a59	0.0026947467
125	0xbdccd425	-0.10001401
126	0xbdfdd8f0	-0.12394893
127	0x3e93e243	0.28883561
128	0x3db5a185	0.08868698
129	0xbe2c929a	-0.16852799
130	0xbbe15e3b	-0.006877688
131	0xbde8ac81	-0.113610275
132	0x3e318366	0.17335281
133	0xbc62e023	-0.013847384
134	0xbcc1f043	-0.023674136
135	0x3db101d0	0.08642924
136	0x3d3fa3bf	0.04678702
137	0x3ecbe8a9	0.39825943
138	0xbe8970bf	-0.2684383
139	0xbe961713	-0.2931448
140	0x3e433fa3	0.19067244
141	0xbe48e5af	-0.19618867
142	0xbe2d025d	-0.16895433
143	0x3bc4b053	0.006002465
144	0x3e69c236	0.22827992
145	0x3da2e6fd	0.07954214
146	0xbd1343e7	-0.03595343
147	0x3d1c9e3f	0.038236853
148	0xbeab8686	-0.3350107
149	0xbe79ca1a	-0.24393502
150	0xbdb6de14	-0.08929077
151	0x3dd645d6	0.10462539
152	0xbddb888a	-0.10719402
153	0xbe451c11	-0.19248988
154	0x3e3be311	0.18348338
155	0xbe724458	-0.23658884
156	0x3e51e6ae	0.20498154
157	0xbe3cf160	-0.18451452
158	0xbea5ecf2	-0.32407337
159	0x3e74b0f7	0.23895632
160	0xbbc23abb	-0.0059274114
161	0xbe0a87ef	-0.13528417
162	0xbe18cc7f	-0.14921759
163	0xbe12065d	-0.1426024
164	0xbec68534	-0.387735
165	0x3d01b23b	0.031664114
166	0x3efabe20	0.4897318
167	0xbeb859a4	-0.3600589
168	0xbdd46d00	-0.103723526
169	0x3d1635a8	0.036672264
170	0xbd2a0c89	-0.04151586
171	0x3e98b4de	0.2982549
172	0x3e038a2b	0.12845676
173	0x3e6df47e	0.23237798
174	0xbf13ab83	-0.5768358
175	0xbdeee5bf	-0.11664914
176	0x3db0c442	0.08631183
177	0xbe2a0ef3	-0.16607265
178	0x3e1e41e4	0.15454823
179	0x3d023217	0.03178605
180	0xbedde287	-0.4333689
181	0xbd944705	-0.072401084
182	0x3e847825	0.25872913
183	0xbe49f074	-0.19720632
184	0x3e71a7ec	0.23599213
185	0xbf3698b1	-0.7132674
186	0x3e0419f2	0.12900522
187	0xbe8e487c	-0.27789676
188	0xbdbf68b7	-0.09346145
189	0x3ebfcfe0	0.37463284
190	0x3e1bc249	0.15210833
191	0x3e287289	0.16449942
192	0xbe9c3390	-0.3050809
193	0xbe9a2966	-0.3010971
194	0x3e74e573	0.23915653
195	0x3d6a9261	0.057268504
196	0xbcba47e3	-0.022739356
197	0x3e19046d	0.14943095
198	0x3e9bf97e	0.30463785
199	0xbe85e526	-0.2615139
200	0x3e774e47	0.24150954
201	0x3d773b29	0.060359154
202	0xbde4bc3b	-0.111687146
203	0xbd950da0	-0.072779894
204	0xbdc8004d	-0.09765682
205	0x3e868420	0.26272678
206	0xbed852cc	-0.4225067
207	0xbd38a0f1	-0.04507536
208	0x3ea033f6	0.31289643
209	0xbda04a3b	-0.07826658
210	0x3e91070c	0.2832569
211	0xbd3d2a43	-0.046182882
212	0xbd5ab13e	-0.053391688
213	0x3ed85634	0.42253268
214	0xbef35e0e	-0.47532696
215	0xbdbf3ac1	-0.09337378
216	0xbe0c4f65	-0.13702162
217	0xbc0c03f4	-0.008545864
218	0xbe45352b	-0.19258563
219	0x3ed5d14e	0.4176125
220	0x3e5ead0c	0.217457
221	0xbe58e437	-0.21180807
222	0xbe637fa2	-0.22216657
223	0xbe245fdf	-0.16052197
224	0x3e23382b	0.15939395
225	0xbeab8093	-0.33496532
226	0xbecbba7d	-0.39790717
227	0xbdb7a729	-0.0896743
228	0xba300dab	-0.0006715904
229	0xbe82bb0f	-0.2553334
230	0xbdf42a3d	-0.11922119
231	0x3eb5ba10	0.35493517
232	0x3e98a883	0.29816064
233	0xbd840222	-0.06445719
234	0x3e136e68	0.14397585
235	0x3d927424	0.07151058
236	0xbe85a1ab	-0.26099905
237	0xbcb54fb8	-0.02213274
238	0x3e70eceb	0.23527877
239	0xbe90e7b2	-0.2830177
240	0x3e0f5eea	0.1400105
241	0xbdf91e09	-0.12163932
242	0x3e1270f9	0.14300908
243	0xbd54d3b1	-0.051959697
244	0x3d4dbd06	0.050229095
245	0x3e7f5ff0	0.24938941
246	0xbe895927	-0.2682583
247	0xbde17e0e	-0.11010371
248	0xbe40de0e	-0.18834707
249	0x3e9e254b	0.30887827
250	0x3dbb74e4	0.091531545
251	0x3ceab907	0.028652681
252	0xbec613cb	-0.38686976
253	0xbeaa0f1c	-0.33214653
254	0x3bc028fb	0.0058642603
255	0x3cbfef03	0.0234294

policy_net.2.bias f4 [64]
0	0xbc42904a	-0.0118752215
1	0xbdf39c2f	-0.11895024
2	0x3dab2d49	0.08358247
3	0xbd99c4fb	-0.07508274
4	0x3d4042be	0.04693865
5	0x3cff3195	0.031151572
6	0xbd215d84	-0.039395824
7	0xbd3739f4	-0.044733003
8	0x3dc4e7c4	0.09614518
9	0x3dd32515	0.10309807
10	0xbca4b455	-0.02010552
11	0x3c9a6438	0.018846616
12	0x3d667c82	0.056271084
13	0x3d0b9e04	0.034086242
14	0xbd924f21	-0.07143999
15	0xbe0779c8	-0.1323005
16	0x3e205a15	0.15659364
17	0x3dd60c49	0.10451562
18	0x3dab9c81	0.0837946
19	0xbce53a2c	-0.02798184
20	0xbe3437dd	-0.17599435
21	0xbbf477ea	-0.007460584
22	0x3dc4bc81	0.09606267
23	0xbcec3e80	-0.028838396
24	0x3da11ae8	0.0786646
25	0xbd26b92f	-0.04070395
26	0xbe1ed7d4	-0.1551202
27	0xbdb545f9	-0.08851237
28	0xbd1db51f	-0.03850281
29	0x3cdadd2f	0.026716797
30	0xbd699a7f	-0.057032105
31	0xbc69b65f	-0.014264672
32	0xbe2949a1	-0.16531993
33	0xbd8e0ffa	-0.06936641
34	0x3cf66ecd	0.03008213
35	0x3cef4b8f	0.029210834
36	0xbd9c9b09	-0.07646758
37	0x3ddf35a5	0.10898904
38	0xbddcc3e5	-0.107795514
39	0xbc94c578	-0.018160567
40	0x3e1980af	0.14990495
41	0xbdc6c4b3	-0.09705486
42	0x3d297620	0.04137242
43	0x3dffe827	0.124954514
44	0xbc81c724	-0.015842028
45	0xbc02efa0	-0.007991701
46	0xb9d8f32c	-0.00041379908
47	0x3d11e8e8	0.035622507
48	0xbce66aee	-0.02812716
49	0xbc9b11bb	-0.018929353
50	0x3c635134	0.013874341
51	0xbdb3fb25	-0.087881364
52	0x3e1994b2	0.14998129
53	0x3df7a097	0.12091177
54	0x3cd0bde3	0.02548117
55	0xbd4b5a98	-0.049646944
56	0x3cef9345	0.029245028
57	0xbd242ac6	-0.040079854
58	0x3d26a5bb	0.040685397
59	0xbcb0fc89	-0.021604793
60	0x3df2c4f0	0.11853969
61	0x3a7a1b15	0.00095407787
62	0x3d12cdff	0.035840984
63	0xbe1877c0	-0.14889431

action_net.weight f4 [5, 64]
0	0x3cace08f	0.021103172
1	0xbe5b988e	-0.21444914
2	0x3d118f32	0.035536952
3	0x3ccd9e33	0.02509985
4	0xbe02e64c	-0.12783164
5	0xbcadf578	-0.021235213
6	0xbe0530ad	-0.1300685
7	0x3d2b11df	0.04176509
8	0x3d359e57	0.044340458
9	0xbd9d0486	-0.076668784
10	0xbcfc8522	-0.030825201
11	0x3d053804	0.032524124
12	0x3b439246	0.0029841824
13	0x3d113b2c	0.03545682
14	0x3b9ac2f1	0.004722946
15	0xbe5bd5c0	-0.21468258
16	0x3de3af51	0.11117423
17	0xbd176021	-0.03695691
18	0x3da3ed68	0.08004266
19	0x3d4fd2d8	0.050738186
20	0x3d279cc6	0.040920995
21	0x3d94394c	0.07237491
22	0x3c8c7586	0.017145883
23	0xbd7f840c	-0.06238179
24	0xbdc4955a	-0.09598799
25	0x3da9abd4	0.08284727
26	0x3dde2915	0.108476795
27	0x3be48229	0.006973524
28	0xbd17be9b	-0.03704701
29	0xbd8ed5ae	-0.0697435
30	0xbd4adc20	-0.049526334
31	0xbbb2124b	-0.0054343096
32	0xbd841261	-0.06448818
33	0xbc2fa102	-0.01071954
34	0x3d8cb753	0.06870904
35	0xbd430a46	-0.04761722
36	0xbd928d3d	-0.07155845
37	0x3d928be1	0.07155586
38	0xbd70a6d6	-0.058752857
39	0xbe035c61	-0.12828209
40	0x3d162381	0.036654953
41	0x3c1a2f6a	0.009410718
42	0xbb15a46f	-0.0022833606
43	0xbcd8ad5b	-0.02644985
44	0x3d91f9a8	0.07127696
45	0xbd601c27	-0.05471435
46	0x3d84c94f	0.06483709
47	0x3cd16439	0.025560485
48	0xbd88026c	-0.06641087
49	0x3da2fdd7	0.07958572
50	0xbdb503ec	-0.08838639
51	0xbdbc4240	-0.09192324
52	0xbcc21195	-0.023690024
53	0x3b7c017d	0.0038453036
54	0x3db43bfb	0.08800503
55	0x3d42dc57	0.047573414
56	0xbd223485	-0.039600868
57	0x3cb099ef	0.021557776
58	0xbd158711	-0.036505762
59	0xbd26b35a	-0.040698387
60	0x3dc08dc6	0.09402041
61	0x3d819d7e	0.063288674
62	0xbda231c5	-0.07919649
63	0x3ce931a8	0.02846606
64	0xbefadc76	-0.48996323
65	0x3e19bc6f	0.15013288
66	0xbc9feff7	-0.019523604
67	0x3e5e3ab8	0.21702087
68	0x3de39710	0.11112797
69	0x3d46a0a0	0.048493028
70	0xbec06e69	-0.37584236
71	0xbd25f9f4	-0.040521577
72	0xbd6e31e0	-0.058153033
73	0x3d8955e3	0.06705835
74	0x3e807bfa	0.25094587
75	0x3cc77882	0.024349455
76	0xbdc8bc6c	-0.098015636
77	0x3d8b6231	0.06805838
78	0x3e77d397	0.24201809
79	0xbca4f642	-0.020136956
80	0x3db517e5	0.08842448
81	0x3e0c7ad7	0.13718735
82	0x3bbcca88	0.0057614483
83	0xbe044c4b	-0.12919728
84	0xbdb559b3	-0.088549994
85	0x3bdb31e1	0.0066892956
86	0x3d91cdb3	0.07119312
87	0x3dc35cd0	0.09539187
88	0x3dcf89e4	0.101337224
89	0x3ce5ce61	0.02805251
90	0x3ed8e238	0.4236009
91	0x3e1021ed	0.14075442
92	0x3db8fccc	0.09032592
93	0x3e31128b	0.1729223
94	0x3d839fce	0.06426965
95	0x3ce9c124	0.02853448
96	0xbdc8e460	-0.09809184
97	0xbd800463	-0.06250837
98	0xbe102572	-0.14076784
99	0x3c3af941	0.011411966
100	0xbd62c9bc	-0.05536817
101	0x3d0f9fd0	0.03506452
102	0xbe01f1de	-0.12689921
103	0x3d6ca076	0.057770215
104	0x3dcebba7	0.100943856
105	0xbdd2c7a0	-0.10291982
106	0xbe44074f	-0.19143413
107	0x3d24069c	0.040045366
108	0xbca5408a	-0.020172376
109	0xbe247272	-0.16059282
110	0xbd96bbfb	-0.07360073
111	0xbe6ee84f	-0.23330806
112	0x3dc97c26	0.098381326
113	0x3e262701	0.16225816
114	0x3e63112a	0.22174516
115	0x3c2084a9	0.009797254
116	0x3dcee1d6	0.101016685
117	0x3c54ff36	0.0130003
118	0xbb82106c	-0.003969243
119	0xbc0be090	-0.008537427
120	0x3ca59c2a	0.020216066
121	0xbdf8b192	-0.12143244
122	0xbe800d84	-0.25010312
123	0x3dc48297	0.095952205
124	0xbdbb2a47	-0.09138923
125	0xbe66cafc	-0.2253837
126	0x3e2ebea9	0.17064919
127	0x3decf6bb	0.115704976
128	0x3ed3fc72	0.41403538
129	0xbd27942e	-0.0409128
130	0xbdb16af0	-0.08662975
131	0xbe558a0a	-0.20853439
132	0xbe0299c1	-0.12753965
133	0xbdd552c5	-0.10416178
134	0x3ee029c8	0.43781877
135	0xbd0f62ad	-0.035006214
136	0x3ddb35ef	0.107036464
137	0x3bd10bf0	0.006379597
138	0xbe7e1ed7	-0.24816452
139	0xbd1d54c7	-0.038410928
140	0x3e3c85dd	0.1841044
141	0xbdbd0546	-0.092295215
142	0xbe4a4934	-0.19754487
143	0x3e18cf79	0.14922895
144	0x3d7acf71	0.061232988
145	0xbde3f7c0	-0.11131239
146	0x3bbbc1f1	0.0057299067
147	0x3d7dcdab	0.06196372
148	0x3de93574	0.113871485
149	0x3c9c2660	0.019061267
150	0x3b4a0b77	0.0030829587
151	0xbe3f860c	-0.18703479
152	0xbe25ed9b	-0.1620392
153	0x3cb11137	0.021614654
154	0xbeb0e435	-0.34549108
155	0xbdcec587	-0.10096269
156	0xbdb1549d	-0.08658717
157	0xbe23e65a	-0.16005841
158	0x3d16464c	0.036688134
159	0xbdc6edfa	-0.09713359
160	0x3c7e8a4c	0.015535902
161	0x3d67d0c6	0.056595586
162	0x3de11ef7	0.10992234
163	0xbb2978d7	-0.002585938
164	0x3b8baa4e	0.0042622453
165	0xbc1d9b44	-0.009619538
166	0x3e061528	0.13094008
167	0x3e02e969	0.12784351
168	0xbd31ee67	-0.04344025
169	0x3e16b698	0.14718091
170	0x3dd50616	0.104015514
171	0xbc711e92	-0.014716761
172	0x3d4e95c8	0.05043581
173	0x3e3933e0	0.18086195
174	0x3e3bf66d	0.18355723
175	0x3e207566	0.15669784
176	0xbdbdeb6e	-0.0927342
177	0xbe0749d9	-0.13211764
178	0xbdee4fc9	-0.116363116
179	0x3d5202ff	0.05127239
180	0xbe2d7386	-0.169386
181	0xbd46b422	-0.04851163
182	0xbd7c48e9	-0.06159297
183	0xbd85b9a8	-0.06529552
184	0x3da3a3e2	0.079902425
185	0xbe2fb768	-0.17159808
186	0x3e5bf679	0.2148074
187	0xbddf4767	-0.10902291
188	0x3e4d72da	0.20063344
189	0x3e331d14	0.17491561
190	0xbdf95662	-0.12174679
191	0xbe2468dd	-0.16055627
192	0xbec41591	-0.38297704
193	0xbeeb82f6	-0.45998353
194	0x3e299075	0.16559012
195	0x3dea47ac	0.114394516
196	0x3eb2a93f	0.3489475
197	0x3dd8ccfd	0.105859734
198	0xbcedf1d4	-0.029045977
199	0x3e16668e	0.14687559
200	0xbe2eba50	-0.1706326
201	0xbd4d7711	-0.05016238
202	0x3de46cac	0.1115354
203	0x3e2faec3	0.1715651
204	0xbca74ca1	-0.020422282
205	0xbea651cf	-0.3248429
206	0xbd958f09	-0.073026724
207	0x3d800d89	0.062525816
208	0x3db10a2a	0.08644517
209	0x3dec2b34	0.11531678
210	0xbeb995f2	-0.36247212
211	0xbd46186f	-0.048363145
212	0xbe228437	-0.15870748
213	0x3e6684f2	0.22511652
214	0xbd8be988	-0.06831652
215	0xbe7ab4ad	-0.24482985
216	0x3ddfbf4d	0.109251596
217	0xbe24be04	-0.1608811
218	0xbcf25532	-0.02958164
219	0x3d52414a	0.051331796
220	0x3d125acd	0.035731126
221	0x3ddbaf55	0.10726801
222	0x3d8469fc	0.064655274
223	0x3bfa9b3c	0.0076479
224	0x3e1d5e33	0.15367965
225	0x3e154317	0.14576374
226	0xbdecb06b	-0.115570866
227	0x3dda2dff	0.10653304
228	0x3e9902d4	0.2988497
229	0x3d67521f	0.0564748
230	0x3e047af5	0.1293753
231	0xbd5dd35b	-0.054156642
232	0x3d898e35	0.06716577
233	0xbd81bd01	-0.06334878
234	0x3d1d5469	0.038410578
235	0xbda03055	-0.078217186
236	0xbd0e80e1	-0.034790877
237	0x3dc0943c	0.094032735
238	0xbe830bd3	-0.2559496
239	0xbe896072	-0.26831394
240	0xbd9c3fb3	-0.07629337
241	0xbd810732	-0.063002005
242	0xbe46c9e1	-0.19412948
243	0x3e555ad1	0.20835425
244	0x3dafd9e2	0.0858648
245	0x3cef4c02	0.029211048
246	0x3e28929f	0.16462182
247	0x3dc19ce8	0.094537556
248	0xbcd8ae6c	-0.026450358
249	0xbd433cde	-0.04766547
250	0xbd66c3f8	-0.056339234
251	0x3cd2bb2c	0.025724016
252	0xbd80543d	-0.06266067
253	0xbe24ac03	-0.16081242
254	0x3e2fedab	0.17180507
255	0xbba6ee82	-0.0050943503

action_net.bias f4 [5]
0	0x3de915d8	0.113811195
1	0x3cb38df8	0.021918282
2	0xbd1d776d	-0.03844397
3	0xbd52a664	-0.051428214
4	0xbd33a72c	-0.0438606
